lightning_logs/version_4/checkpoints/epoch=1.ckpt (torch, 958291 bytes, 12 tensors)

exp_avg f4 [100, 784]
00000000: 0000 0000 0000 0000 0000 0000 0000 0000
00000010: 0000 0000 0000 0000 0000 0000 0000 0000
00000020: 0000 0000 0000 0000 0000 0000 0000 0000
00000030: e3d0 a3aa a559 33ab 0400 0000 0400 0000
00000040: 0000 0000 0000 0000 0000 0000 0000 0000
00000050: 0000 0000 0000 0000 0000 0000 0000 0000
00000060: 0000 0000 0000 0000 0000 0000 0000 0000
00000070: 0000 0000 0000 0000 0000 0000 0000 0000
00000080: 9115 2386 ac87 ef86 23c4 9495 692a 1aad
00000090: 85c8 4bae 2417 2ab2 a4e3 efb3 4896 86b5
000000a0: 5b06 feb5 ba86 b0b5 65cc abb5 b429 29b4
000000b0: 3b9b 96b5 6250 17b6 9d51 adb5 d758 2db3
000000c0: 23d2 e3ae 4893 c4ac bcf9 1bb0 79c2 58b0
000000d0: 0000 0000 0000 0000 0000 0000 0000 0000
000000e0: 0000 0000 0000 0000 4014 0a86 e9dd c599
000000f0: f52a 44a6 c76c 3da6 39c8 08ab a860 31ae
00000100: 5289 c633 18e0 84b5 0e28 afb6 2693 5ab7
00000110: 4ec8 84b7 56df 2cb8 a938 cfb7 607a 7bb7
00000120: 1505 beb7 7b83 a5b7 eac0 5cb7 3892 31b7
00000130: b644 9eb6 5f7d 58b5 ae15 50b4 8600 77b3
00000140: d87b 65b4 a5da 2bb4 0000 0000 0000 0000
00000150: 0000 0000 0000 0000 88ca 902e 75e5 892d
00000160: f9fe aca7 2edf 0734 fd21 9f33 fbd4 8930
00000170: b269 9e36 e6b6 3e36 c9f0 20b7 295f 4fb8
00000180: 9fa1 96b8 5afd 8fb8 71b6 f6b7 ad60 20b9
00000190: 1f0e a6b8 95bb 4cb8 45d0 fbb7 2dee 2fb8
000001a0: 2109 d5b7 ed7a a8b7 0d62 3438 4d62 a537
000001b0: 1acd d535 4506 45b4 8aa7 58a8 0000 0000
000001c0: 0000 0000 0000 0000 9f36 782f 0053 712e
000001d0: 4f86 03b3 d515 3e35 d26b 4436 77f0 c436
000001e0: 7057 7d37 eefa 6437 d7f5 40b7 7471 fab8
000001f0: 5d84 5bb9 281a d5b8 9089 9eb8 3ad3 91b9
00000200: f346 60b8 7f4a 6b39 b1e3 1b39 3740 8a39
00000210: aca8 0839 f761 f338 3ac9 8738 efe6 0737
00000220: 4e9f c836 ff9c 70b6 918a 51b4 412c 9713
00000230: 0000 0000 0000 0000 bf60 1a33 8bc8 002d
00000240: bf9b 2036 3af7 1637 0ec2 4938 66df fc38
00000250: cda8 3f39 20cc f838 346d ee38 2d64 e438
00000260: 0054 2139 5e3e 0339 48e7 e937 9829 0739
00000270: d50d 8d39 5390 d139 918f 5038 f61d b337
00000280: d856 8d38 43d6 be38 ef3f 5938 646e 3cb7
00000290: 61f3 4037 0715 0537 ca6d a3b4 838b 8b1d
000002a0: 0000 0000 0000 0000 d830 a3ad 8ee6 ae22
000002b0: 1cfd e435 3416 8838 d921 d638 fb46 8b38
000002c0: a509 b538 caae 2339 fa3b c038 04f0 cd38
000002d0: 0074 e235 663a 0635 7ca5 2ab9 7dcf 5bb9
000002e0: 4ffa 0fb9 7f4f 2839 ce78 e638 ab62 b938
000002f0: 68c8 4439 e96a b138 7979 7338 7965 5bb8
00000300: 9184 21b8 1c78 efb6 0b9d 03b7 91a3 b2b1
00000310: 0000 0000 0400 0000 41be 56ad 6870 1eb0
00000320: ec19 7234 1f47 af37 d871 9636 697e 23b9
00000330: 7b17 f037 8d15 a9b8 383d 5cb9 108e 18b9
00000340: 40eb 33b9 335b 2ab9 09b7 60b8 f464 3ab9
00000350: 6b29 afb8 6272 80b5 e8c5 1a39 6e1e b539
00000360: 1272 a139 d30d 0539 69c5 f0b7 01be dbb7
00000370: d6dc adb7 2811 e335 909d 83b5 b3ab 12b3
00000380: 0400 0080 0400 0000 6c89 872a 9dfd d2b1
00000390: f2ef 2a35 89c2 f7b7 893a 51b8 005f ceb8
000003a0: 3149 66b8 abab 1438 c2d2 fa38 955f 95b8
000003b0: 2e47 51b9 1ed6 9cb8 31f0 ca38 f761 91b7
000003c0: 918e e4b8 d098 cab8 dcdd b639 67d3 163a
000003d0: d1f8 c239 f36b 0939 8594 12b8 8dce a837
000003e0: 9122 8c37 68d8 3b37 c8d0 b736 c58e 9cb2
000003f0: 0400 0000 0400 0000 162b 16b3 8628 85b2
0.0 0.0 0.0 0.0 0.0 0.0 0.0 0.0
0.0 0.0 0.0 0.0 -2.909956e-13 -6.371798e-13 6e-45 6e-45
0.0 0.0 0.0 0.0 0.0 0.0 0.0 0.0
0.0 0.0 0.0 0.0 0.0 0.0 0.0 0.0
-3.0672737e-35 -9.010116e-35 -6.0086173e-26 -8.7633035e-12 -4.6334953e-11 -9.900564e-09 -1.1170712e-07 -1.0027516e-06
-1.8926324e-06 -1.3152232e-06 -1.279998e-06 -1.5754523e-07 -1.1221049e-06 -2.2547542e-06 -1.2913257e-06 -4.03605e-08
-1.03600926e-10 -5.5870066e-12 -5.6743565e-10 -7.8856704e-10 0.0 0.0 0.0 0.0
0.0 0.0 -2.5969793e-35 -2.0458951e-23 -6.805938e-16 -6.571997e-16 -4.859477e-13 -4.033099e-11
9.245072e-08 -9.899986e-07 -5.2200694e-06 -1.3028073e-05 -1.58289e-05 -4.1215993e-05 -2.4702707e-05 -1.49892585e-05
-2.2652132e-05 -1.9730758e-05 -1.3157938e-05 -1.0584066e-05 -4.716766e-06 -8.064871e-07 -1.9379397e-07 -5.7509645e-08
-2.1372341e-07 -1.6005158e-07 0.0 0.0 0.0 0.0 6.5843386e-11 1.5676996e-11
-4.801603e-15 1.2654047e-07 7.410197e-08 1.0028595e-09 4.7210715e-06 2.8418667e-06 -9.592805e-06 -4.944127e-05
-7.182662e-05 -6.865962e-05 -2.9410441e-05 -0.00015294804 -7.918127e-05 -4.881209e-05 -3.0018515e-05 -4.194507e-05
-2.539583e-05 -2.0084402e-05 4.300666e-05 1.9715308e-05 1.5929429e-06 -1.8349336e-07 -1.2026738e-14 0.0
0.0 0.0 2.2574874e-10 5.4870775e-11 -3.0622967e-08 7.0812285e-07 2.9269036e-06 5.869249e-06
1.5100333e-05 1.3648283e-05 -1.1501331e-05 -0.00011942061 -0.00020934777 -0.000101615035 -7.55965e-05 -0.0002781393
-5.347184e-05 0.00022439098 0.00014866774 0.00026369255 0.00013032806 0.0001160539 6.474783e-05 8.1003955e-06
5.97901e-06 -3.585417e-06 -1.9515052e-07 3.8161397e-27 0.0 0.0 3.594391e-08 7.320487e-12
2.3932514e-06 8.998259e-06 4.8102862e-05 0.000120579076 0.00018278063 0.00011863583 0.00011369065 0.000108905464
0.00015385449 0.00012516367 2.7883463e-05 0.00012890098 0.0002690392 0.00039971116 4.972477e-05 2.1352414e-05
6.73958e-05 9.099815e-05 5.1796374e-05 -1.12313755e-05 1.1500758e-05 7.932314e-06 -3.0440998e-07 3.6937245e-21
0.0 0.0 -1.8552646e-11 4.7406904e-18 1.7060988e-06 6.489121e-05 0.0001021062 6.641258e-05
8.632549e-05 0.00015610005 9.166445e-05 9.819868e-05 1.6872073e-06 5.000387e-07 -0.00016274111 -0.00020962763
-0.0001373079 0.00016051343 0.00010989756 8.839866e-05 0.00018766674 8.459931e-05 5.8048845e-05 -5.2308173e-05
-3.8508853e-05 -7.1367376e-06 -7.844773e-06 -5.199077e-09 0.0 6e-45 -1.22067365e-11 -5.7639804e-10
2.2547437e-07 2.0894744e-05 4.4836015e-06 -0.00015591983 2.8621163e-05 -8.062562e-05 -0.0002100364 -0.00014548772
-0.00017158408 -0.00016246438 -5.3576226e-05 -0.0001777595 -8.352365e-05 -9.570033e-07 0.0001476031 0.00034545682
0.00030793302 0.00012689018 -2.8702156e-05 -2.6195312e-05 -2.0726042e-05 1.6917811e-06 -9.806117e-07 -3.4149434e-08
-6e-45 6e-45 2.4076173e-13 -6.140637e-09 6.36791e-07 -2.9535282e-05 -4.9883998e-05 -9.8405406e-05
-5.4904438e-05 3.5445828e-05 0.00011960186 -7.122677e-05 -0.0001995831 -7.478542e-05 9.67685e-05 -1.7330965e-05
-0.00010898442 -9.660574e-05 0.00034879043 0.00057535473 0.00037187946 0.00013105552 -3.4947432e-05 2.0123343e-05
1.6705397e-05 1.1196455e-05 5.4781303e-06 -1.8225714e-08 6e-45 6e-45 -3.4963783e-08 -1.5501666e-08

exp_avg_sq f4 [100, 784]
00000000: 0000 0000 0000 0000 0000 0000 0000 0000
00000010: 0000 0000 0000 0000 0000 0000 0000 0000
00000020: 0000 0000 0000 0000 0000 0000 0000 0000
00000030: cb51 db2c b2e8 822e 4aba 032e c82e 6a29
00000040: 0000 0000 0000 0000 0000 0000 0000 0000
00000050: 0000 0000 0000 0000 0000 0000 0000 0000
00000060: 0000 0000 0000 0000 0000 0000 0000 0000
00000070: 0000 0000 0000 0000 0000 0000 0000 0000
00000080: 71a0 2a27 66cc 3929 e685 1a2f 6049 d32f
00000090: 6f68 a630 8adb 0d30 6980 db30 34ee 9a30
000000a0: f434 8930 bc4a 3230 af1b 4d31 15f2 0a31
000000b0: fb8a 2531 3d97 1730 c544 862f c5ff d630
000000c0: 2684 3e30 758c 4f30 1aa6 a830 2216 0230
000000d0: 0000 0000 0000 0000 0000 0000 0000 0000
000000e0: 0000 0000 0000 0000 fb9e 9c25 e9be 462a
000000f0: e26e 642b 3ba0 e32c 3971 f92f c5c7 0331
00000100: 4c7e 8331 c0dc 9332 d33e c832 d2dd db32
00000110: 3771 ee32 113e 7833 d947 8233 3f28 8d33
00000120: 04a8 6d33 70d8 5933 df83 6433 ef88 ab32
00000130: 46cb 6e32 b0e5 fa31 a780 9831 c2c0 7b30
00000140: d3e9 6e31 b8bc c630 0000 0000 0000 0000
00000150: 0000 0000 0000 0000 0253 442b b0cd 932c
00000160: 9bca 722f 98b6 9231 2c44 a431 1ae8 9a32
00000170: 6ebb 0733 30e1 7033 c667 c533 3df3 d533
00000180: 9be4 3334 8abc 7a34 d532 b334 0710 e734
00000190: bbb8 df34 8aed c234 4b4c 8d34 fbea 3734
000001a0: 74d2 0634 6c96 ba33 a5c5 2d33 8423 8032
000001b0: 24cb fc31 f8c5 d930 dc58 2230 0000 0000
000001c0: 0000 0000 0000 0000 1940 332d 05e2 692e
000001d0: 612b 8b30 1060 c232 723d 8a33 fe4a d733
000001e0: 8c9b 3834 6441 9d34 3d4b ed34 cf2f 4335
000001f0: 8d6e 8435 f0c5 9b35 c73b bd35 d4c4 d435
00000200: 8395 c435 6327 a435 e330 7d35 e3ab 2e35
00000210: 5ef2 fd34 255d a434 2059 1f34 b141 8133
00000220: a87d 1933 c425 0232 f749 cb2f 29a1 b62e
00000230: 0000 0000 0000 0000 8693 3b2d d3fe fc30
00000240: acf9 9a32 82f9 ab33 4153 4334 773c ab34
00000250: 5664 0d35 cacf 7435 30ab b835 e7ab 0836
00000260: 8722 2836 8ecc 4636 47b2 5e36 e4dc 6436
00000270: 2065 4d36 dd38 2a36 ffef 0336 f4ad be35
00000280: 37e0 8b35 aa38 3735 c1ec bf34 c81f 3434
00000290: 1138 4c33 f2aa 2532 e671 e430 627a 522f
000002a0: 0000 0000 0000 0000 73d9 1c2f 7531 b231
000002b0: 0919 d032 3af3 dc33 d618 ab34 9812 2335
000002c0: 708c 8335 4f06 d435 2298 2036 43f6 5136
000002d0: 66dd 7336 60af 8b36 0faf 9536 eac8 9736
000002e0: a9f7 9036 1659 7636 37bc 4536 5771 1036
000002f0: 5bca c735 da1d 8635 dc81 2035 28d9 8d34
00000300: 6d29 c533 6fd4 be32 98d9 ac31 2851 db2f
00000310: 0000 0000 a4aa 342c 7a7d 432f 87a2 e431
00000320: 0b68 4033 e42a 2434 6bad e134 7923 5635
00000330: bb2e ae35 7062 0d36 4a99 4036 c746 6b36
00000340: b58a 8a36 87a6 9436 eb65 9736 6a15 9d36
00000350: c6c7 8f36 b190 7b36 1309 5136 4782 1f36
00000360: 9cd2 d935 6c38 8c35 c8f0 2c35 3055 b334
00000370: d990 1034 7daf 2b33 cbc6 4932 bb50 442f
00000380: 5275 332e 558d 922d 6dcd 6f2f 36f0 0132
00000390: dbe1 8b33 ba15 6934 173f 1135 6d07 8835
000003a0: a28a dc35 587b 1a36 82d1 4e36 f743 7836
000003b0: bacb 8536 1309 8836 9d8d 8a36 5bfd 8336
000003c0: 813b 6736 eafb 4c36 e6f2 2b36 fbf1 0736
000003d0: b5f6 c235 085e 7a35 c5f5 2835 fe71 ba34
000003e0: f727 1334 bb14 5533 10db 2c32 3cce 132f
000003f0: ae07 f42a 671c b12d ad9b f52f 2e31 5532
0.0 0.0 0.0 0.0 0.0 0.0 0.0 0.0
0.0 0.0 0.0 0.0 6.233435e-12 5.9530506e-11 2.995141e-11 5.1999014e-14
0.0 0.0 0.0 0.0 0.0 0.0 0.0 0.0
0.0 0.0 0.0 0.0 0.0 0.0 0.0 0.0
2.3679215e-15 4.125554e-14 1.4053789e-10 3.8432812e-10 1.2107771e-09 5.1607485e-10 1.5970844e-09 1.1272676e-09
9.983112e-10 6.4862227e-10 2.9847163e-09 2.021925e-09 2.4089661e-09 5.51484e-10 2.4423322e-10 1.5643243e-09
6.930939e-10 7.550576e-10 1.2270818e-09 4.7325177e-10 0.0 0.0 0.0 0.0
0.0 0.0 2.7169416e-16 1.7652168e-13 8.115575e-13 6.469517e-12 4.5373286e-10 1.9176565e-09
3.82696e-09 1.7213438e-08 2.3311634e-08 2.5595828e-08 2.775833e-08 5.779845e-08 6.066666e-08 6.573145e-08
5.5333672e-08 5.07211e-08 5.3205323e-08 1.996929e-08 1.3899642e-08 7.30207e-09 4.4384083e-09 9.1587193e-10
3.4766472e-09 1.4460033e-09 0.0 0.0 0.0 0.0 6.9748385e-13 4.200827e-12
2.2081752e-10 4.2699178e-09 4.7807784e-09 1.8033507e-08 3.1602603e-08 5.608416e-08 9.1924036e-08 9.96283e-08
1.675384e-07 2.3351654e-07 3.3378333e-07 4.3038764e-07 4.1671396e-07 3.6308148e-07 2.6318807e-07 1.7128689e-07
1.2556285e-07 8.6886615e-08 4.0459458e-08 1.4917312e-08 7.3572597e-09 1.5845094e-09 5.9061533e-10 0.0
0.0 0.0 1.01892045e-11 5.3178812e-11 1.012591e-09 2.2628257e-08 6.4373026e-08 1.0025359e-07
1.7192923e-07 2.9291107e-07 4.4199433e-07 7.271273e-07 9.866941e-07 1.1606007e-06 1.4098995e-06 1.5852515e-06
1.4646652e-06 1.2230415e-06 9.4320984e-07 6.507018e-07 4.7301268e-07 3.0615152e-07 1.4840452e-07 6.01898e-08
3.5737372e-08 7.575583e-09 3.697804e-10 8.3050296e-11 0.0 0.0 1.0662476e-11 1.8407839e-09
1.8041497e-08 8.008193e-08 1.8191078e-07 3.1895226e-07 5.26726e-07 9.1199456e-07 1.375889e-06 2.036564e-06
2.5054048e-06 2.9623366e-06 3.318435e-06 3.4103223e-06 3.0606243e-06 2.5365073e-06 1.9660217e-06 1.420673e-06
1.0421562e-06 6.825527e-07 3.5748783e-07 1.6775368e-07 4.7548443e-08 9.6431325e-09 1.6621555e-09 1.9142868e-10
0.0 0.0 1.4265371e-10 5.1861044e-09 2.4225772e-08 1.0288791e-07 3.1869303e-07 6.074929e-07
9.801133e-07 1.5797067e-06 2.393041e-06 3.128677e-06 3.6338693e-06 4.162939e-06 4.4609255e-06 4.52354e-06
4.320366e-06 3.6708711e-06 2.9464843e-06 2.1523645e-06 1.4885549e-06 9.992466e-07 5.9793615e-07 2.6421299e-07
9.181063e-08 2.2215515e-08 5.0305964e-09 3.9893533e-10 0.0 2.5674263e-12 1.7779725e-10 6.6541506e-09
4.479811e-08 1.5289294e-07 4.2035694e-07 7.977283e-07 1.2977611e-06 2.1067935e-06 2.8699455e-06 3.5058927e-06
4.128868e-06 4.43013e-06 4.5120155e-06 4.6814575e-06 4.284989e-06 3.7486136e-06 3.1148709e-06 2.3768678e-06
1.6229055e-06 1.0447234e-06 6.4425376e-07 3.340333e-07 1.346374e-07 3.9973646e-08 1.174494e-08 1.7854777e-10
4.080409e-11 1.6661042e-11 2.1809905e-10 7.563406e-09 6.513775e-08 2.170772e-07 5.4108517e-07 1.0134951e-06
1.6431625e-06 2.3019584e-06 3.0818342e-06 3.699444e-06 3.9874258e-06 4.054172e-06 4.1292064e-06 3.9335987e-06
3.4456318e-06 3.0545002e-06 2.5622371e-06 2.0257419e-06 1.4525928e-06 9.326909e-07 6.294252e-07 3.472814e-07
1.3704981e-07 4.961178e-08 1.0061527e-08 1.3442841e-10 4.3348436e-13 2.0135183e-11 4.4675855e-10 1.2409414e-08

exp_avg f4 [100]
00000000: a0d4 22b9 b242 35b5 b679 ebb8 bd9b 3dba
00000010: 2213 4dba c13c 33b8 2fa5 75b9 3db9 12b9
00000020: 34d3 b6b7 7d5d 043a 6fae ceb9 564a 3339
00000030: c480 d13a 7add 0339 6cfb 74ba 6284 6237
00000040: 7a35 00ba 751c 013a 77ae d137 b02e 09b9
00000050: 375a ec39 6804 84ba fc0e f239 ce19 8e38
00000060: 8b1d 41b9 7bdf 303a 7a1f 6bba 3d0e 77ba
00000070: 0400 0000 cb14 9eba ea6c 95b8 031a c6ba
00000080: 6de5 cd39 9596 f9b9 a2cf 9cba 9d36 6b39
00000090: f644 543a de8c 1eba 0400 0000 7960 fb39
000000a0: e4a8 ca38 c55a fd39 e670 093a 45bc 333a
000000b0: bdf3 0d3a 6a97 ff38 09e8 53ba 58eb 80ba
000000c0: 7977 1a3a 6a58 363a 8c81 5d39 6496 ef39
000000d0: 10d5 07ba 6918 8f39 c3da 63ba 8f28 1139
000000e0: efef 0d3a 5deb f5b9 e87a c4b9 9857 d6b9
000000f0: 02d0 efb9 6856 1838 65d8 26ba 07dc 8138
00000100: c42f 223a 750a d93a 1622 583a 116f 0dba
00000110: 2568 2439 dec6 b0ba 9cb2 7937 71b2 e2b9
00000120: e510 433a a3fe d13a 3ba3 8539 23be 5e3a
00000130: 1f12 0238 e60c 06ba 7ec8 a639 111d 0739
00000140: 015d c539 b1ae 97b8 b713 bfba c646 86b0
00000150: 04a9 92ba 953a b5ba 0218 5f3a 51fb c239
00000160: f66d cfba 5abd b138 c3d2 999e e898 11ba
00000170: 0387 bd39 d5c5 1b3a 47ba 583a 5a3d aa3a
00000180: 3fab 42ba e802 b239 dbc4 1c39 fb77 b938
-0.00015528733 -6.752481e-07 -0.00011228344 -0.00072329846 -0.00078229804 -4.2733507e-05 -0.00023426556 -0.00013992652
-2.179444e-05 0.0005049331 -0.00039421345 0.00017098463 0.001598381 0.0001257564 -0.0009345326 1.35014725e-05
-0.0004890781 0.00049252 2.4995983e-05 -0.0001308273 0.00045080643 -0.0010072114 0.00046169 6.775894e-05
-0.0001841692 0.00067471684 -0.0008969229 -0.0009424424 6e-45 -0.001206064 -7.1251605e-05 -0.0015113953
0.00039271583 -0.00047605173 -0.0011963735 0.00022431691 0.0008097434 -0.00060482125 6e-45 0.00047946328
9.663569e-05 0.0004832355 0.00052429584 0.00068563625 0.0005415043 0.000121875506 -0.0008083587 -0.0009835763
0.00058924366 0.0006955924 0.00021124462 0.00045697682 -0.000518159 0.00027293272 -0.0008691961 0.00013843387
0.0005414476 -0.000469054 -0.00037475605 -0.00040882523 -0.0004574061 3.6320096e-05 -0.0006364643 6.1921826e-05
0.0006186927 0.0016558903 0.00082448253 -0.00053952733 0.00015679056 -0.0013487001 1.4883142e-05 -0.00043239028
0.0007441177 0.0016021322 0.00025489353 0.00084969605 3.1011292e-05 -0.00051136164 0.00031811366 0.00012885431
0.0003764406 -7.23278e-05 -0.0014578019 -9.769898e-10 -0.0011189287 -0.0013826663 0.00085103523 0.0003718981
-0.0015825618 8.475287e-05 -1.6286674e-20 -0.0005554096 0.0003614948 0.000594226 0.00082675036 0.0012988255
-0.00074260304 0.0003395297 0.00014950654 8.8438355e-05

exp_avg_sq f4 [100]
00000000: 35f8 3337 b2a1 8137 fb50 2b37 68eb dc36
00000010: ea82 bc36 4e22 f836 3dd8 4137 95cc 0e37
00000020: 2b91 0f37 a264 2f37 5d6d 2e37 03fa da36
00000030: bc6f 2937 213b 1b37 be37 ff36 6898 c036
00000040: 2828 6337 2fe2 1c37 414f 1337 91d5 3b37
00000050: bf93 3c37 0e31 4937 7ead 4e37 7474 2c37
00000060: e645 3937 70c3 5037 f383 d636 3ca5 1b37
00000070: 98d8 2e30 63df 1937 c31b 2e37 4dd7 1a37
00000080: d386 5237 a13d 4937 66b9 7237 8307 1b37
00000090: d8d8 0e37 f324 5737 2b76 5532 e758 1a37
000000a0: 9866 b736 8656 2037 9a72 ff36 976b 8c37
000000b0: 49d1 4f37 e891 0937 8ecb 8337 3497 3f37
000000c0: 3a04 d736 4919 7537 de3e 4c37 ab5e 1637
000000d0: 58ed 0437 5440 0237 7f0c 1e37 8fba 4337
000000e0: 4229 5137 4f0b 2437 24d5 bd36 57d8 3a37
000000f0: 1c14 3c37 e63a 1b37 7939 1637 db57 2937
00000100: e690 9b37 6bb4 8237 5354 2e37 c7b4 3f37
00000110: a928 1a37 7c1a 8337 f03c 0237 b7ad 5837
00000120: 5569 0737 dfa5 5b37 7f70 0537 8cbc 3e37
00000130: 383c 5f37 cce1 2937 2c3c 2837 38ad 1237
00000140: 0a91 4137 61a6 f736 c058 9137 746f 9132
00000150: 5572 2c37 d201 da36 a70e 3837 314e e536
00000160: 2bc2 5337 27a1 ee36 078d a733 4898 0537
00000170: c608 0a37 d7e9 7037 9032 4b37 67dd 3237
00000180: 449c 0e37 9865 3337 d7b6 f936 c391 6737
1.0727022e-05 1.5453294e-05 1.0211249e-05 6.583916e-06 5.618077e-06 7.3949695e-06 1.1554043e-05 8.5114925e-06
8.557264e-06 1.0454243e-05 1.0396671e-05 6.5260115e-06 1.00992e-05 9.252487e-06 7.6060815e-06 5.7397883e-06
1.3539604e-05 9.350987e-06 8.7803355e-06 1.1195793e-05 1.1240073e-05 1.1991955e-05 1.2318951e-05 1.0279113e-05
1.1043134e-05 1.244327e-05 6.393058e-06 9.277192e-06 6.360863e-10 9.171522e-06 1.0377672e-05 9.229244e-06
1.2548367e-05 1.1994883e-05 1.44674905e-05 9.240469e-06 8.514347e-06 1.28236015e-05 1.24251e-08 9.1998145e-06
5.4657685e-06 9.5568885e-06 7.6129336e-06 1.6739401e-05 1.23868895e-05 8.199808e-06 1.5711204e-05 1.1419692e-05
6.4079913e-06 1.4609025e-05 1.2173985e-05 8.962738e-06 7.923074e-06 7.763581e-06 9.420443e-06 1.1666342e-05
1.2466977e-05 9.777795e-06 5.6574518e-06 1.11368345e-05 1.1210355e-05 9.252433e-06 8.954078e-06 1.009364e-05
1.8544913e-05 1.5581221e-05 1.0390841e-05 1.1426578e-05 9.188582e-06 1.562875e-05 7.762792e-06 1.2915049e-05
8.071152e-06 1.3092037e-05 7.95361e-06 1.1368782e-05 1.3305857e-05 1.0125757e-05 1.002759e-05 8.742609e-06
1.1537466e-05 7.3805427e-06 1.7326674e-05 1.6930905e-08 1.0278619e-05 6.497118e-06 1.0970666e-05 6.8338345e-06
1.2621788e-05 7.1117133e-06 7.802196e-08 7.9628735e-06 8.227484e-06 1.435956e-05 1.2111515e-05 1.0661176e-05
8.500243e-06 1.0692886e-05 7.4420636e-06 1.3802611e-05

exp_avg f4 [10, 100]
00000000: 1873 a0ba 730a 46ba 94ec 4a3a a52a 1ebb
00000010: 4500 233a 6d79 363a 1b78 23ba 3d08 c739
00000020: 653c 2b3a 748e f4b9 6484 c7ba 8f82 3139
00000030: 6407 16bb 13e9 b53a fa80 0e3b 0afc 1a3a
00000040: ef1a 773a bef1 dd3a 6210 4a39 2cf9 133a
00000050: 7e10 5e3a 10fc 1bbb de06 3c3a e75c 823a
00000060: d93b 973a fb5e 7dba e95d 7d3a ab21 1c3a
00000070: 0400 0000 9bd4 a93a 1afb b037 c125 b939
00000080: 136d e938 27bc be39 86dd 3339 c4fb 4f3a
00000090: 7dc8 203a 4411 19bb 0400 0000 eb09 8e3a
000000a0: 2932 823a e2f1 3a3a b828 0b3b cf6a 9d3a
000000b0: e816 48b8 62a6 863a bd50 1abb 4d97 4736
000000c0: 9983 973a b1be c43a 23f1 e43a b1bd 7dba
000000d0: 83bc be3a 676e 4c3a 8461 333a 45f8 a73a
000000e0: 70be 9239 d0da 483b d170 eab8 e692 a6b8
000000f0: 1309 8d3a 4381 c23a da21 bcba 0d57 4639
00000100: 70d5 f8ba ca12 cd3a fecc bf3a fba3 4f3b
00000110: 87d4 903a faa4 083a c30b 1c3a 0eee 2d3a
00000120: 6f14 f639 7506 88ba 4266 143a 6f3f 9b3a
00000130: 9285 4e3a 2c0c 9d3a a743 ab39 9b3c 323a
00000140: 262a e93a 3073 6239 7090 b03a a183 092e
00000150: 058b 333a 2a00 1a3a cb3e 463a dbfe 4e3a
00000160: 8eef 7339 ff72 f139 9d6a 281d 1b3d 2d3a
00000170: 086c 8638 1775 a83a 6658 003b 75db d1ba
00000180: 6346 5e3a 63e5 ea39 520a 903a 63cc 38ba
00000190: 6158 f039 9d3c b43a 9359 3339 4f18 0439
000001a0: 6060 9a3a 6d32 8c3a af9c 5eb8 55d8 9d39
000001b0: 15dc 6c3a 2172 693a 10c4 203a 0ee0 c83a
000001c0: ae89 833b 1032 be3a 73e8 18ba b929 173a
000001d0: b80e b33a 49b5 30b9 fac9 f0b7 4a20 143b
000001e0: c02b d53a 0c46 f5b9 b959 043b cf3e 8639
000001f0: 0b45 073a bf16 6e3a c51c 9639 1240 3d38
00000200: 0400 0000 68a3 b6b9 73bc 66ba 2114 493a
00000210: c882 943a c6d0 a93a d70f e639 d500 9a3a
00000220: c475 273a 0249 1439 0400 0000 945c 123a
00000230: 7c08 a73a 6486 ca3a c61a a7ba f06f b93b
00000240: c949 193a cd63 183a a484 93ba 4f6b f7b8
00000250: 4083 083a 9792 1e3b ddaa 8f3a 0d46 973a
00000260: 97c4 07b8 1548 beb6 72be f039 482e 3e3a
00000270: 5042 ad3a 2694 5d3a 02f7 6439 8ee5 c4b6
00000280: 3b60 6d3a 0cd3 9d3a 3244 94b9 8463 143a
00000290: 8ce3 0e3a 1ec1 b03a 199b ad3a 5a15 703a
000002a0: 29d1 223b 9bbb 53ba de2c a839 26bf da3a
000002b0: 662c ea3a 1e60 783b dd9b e338 a6d1 5a3a
000002c0: 7b86 ab3b 1b0f 393a d293 473b c965 4339
000002d0: 169f 5f39 6221 2d37 5a1c 913a 4f78 f02d
000002e0: d943 35ba a32f f338 45d6 fa39 3f05 333b
000002f0: 9b1e c937 6a7e 723a a052 141b a7f4 00ba
00000300: bbcf f43a ddeb 993a 4ee6 213b 8086 313b
00000310: 40f0 713a 0062 303a 59c9 9e3a d212 f03a
00000320: d80e 1bbb f5ae 073a 4922 8d3b 59f2 573a
00000330: 3f8b 29ba 4f92 53bb 6414 d7ba 1862 9b3b
00000340: d729 32bb 4a28 5abb 57db 0bbb 71bf 8abb
00000350: c990 81bb a7ea 41bb 3465 133a 6ebc 75ba
00000360: 72f5 48ba 385f 703b 88a6 6dbb b8fc edba
00000370: ca1b 453b 08a2 1bbb 8e76 88bb 4e97 85ba
00000380: abec 4c3a cb41 aabb 70a5 563b c7b5 a93a
00000390: 0400 0000 c889 2bba b8ab 87ba c17c b3b9
000003a0: 2a43 193a ca94 883b 08a1 2a3b daff ab3a
000003b0: 2224 c5ba 45bc 103b 0400 0000 1a28 c2ba
000003c0: 9a89 2bbb 6ddf 95bb 8961 473b e9fe c038
000003d0: a9c9 b1ba 6ec0 b7bb 18b2 b1bb 12b7 313b
000003e0: 042c a7bb 62de 65bb 68cf 82b9 2ed0 f239
000003f0: 67c5 06bb 1ace e8ba 8785 c13a 8f9d 91bb
-0.0012241332 -0.00075546576 0.00077409414 -0.0024134305 0.00062179967 0.0006960843 -0.00062358537 0.00037962376
0.0006532132 -0.00046645442 -0.0015221951 0.00016928672 -0.0022892589 0.0013878666 0.0021744356 0.00059121905
0.00094263157 0.0016933007 0.00019270324 0.00056447345 0.00084710855 -0.0023801364 0.0007172654 0.00099459
0.0011538222 -0.0009665337 0.0009665178 0.00059559447 6e-45 0.0012957038 2.1097763e-05 0.0003531408
0.000111306224 0.00036379808 0.00017153294 0.00079339393 0.00061333907 -0.0023356238 6e-45 0.0010836696
0.0009933162 0.000713138 0.0021233987 0.0012009981 -4.770505e-05 0.0010272975 -0.002354666 2.974138e-06
0.0011559605 0.0015010444 0.0017466884 -0.00096794503 0.001455203 0.00077984337 0.0006842839 0.0012815079
0.00027989177 0.0030648 -0.00011179003 -7.942859e-05 0.0010760151 0.0014839548 -0.001435335 0.0001891518
-0.0018984508 0.0015645858 0.0014633236 0.0031683433 0.0011049666 0.00052125717 0.00059526804 0.0006634899
0.00046936 -0.0010377901 0.00056609896 0.0011844466 0.000787818 0.0011981777 0.00032666067 0.0006799192
0.001778905 0.0002159595 0.001347078 3.1267103e-11 0.00068490236 0.0005874658 0.00075624575 0.0007896253
0.00023263527 0.0004605278 2.2289733e-21 0.00066085317 6.40974e-05 0.0012852278 0.001958394 -0.0016010838
0.00084791164 0.00044802864 0.0010989404 -0.0007049499 0.00045842215 0.0013750974 0.00017104139 0.00012597557
0.001177799 0.001069618 -5.3074848e-05 0.00030106553 0.00090354803 0.0008905251 0.0006132731 0.0015325563
0.0040142154 0.0014510769 -0.00058329775 0.000576641 0.0013661003 -0.00016852202 -2.8704282e-05 0.0022602254
0.0016263649 -0.0004678223 0.002019508 0.00025605268 0.00051601295 0.0009082369 0.00028631664 4.512078e-05
6e-45 -0.00034835492 -0.0008801885 0.0007670541 0.001133048 0.0012955896 0.0004388082 0.0011749516
0.0006388093 0.00014141577 6e-45 0.0005583253 0.0012743617 0.0015451428 -0.0012749068 0.005659096
0.00058474817 0.00058132113 -0.001125474 -0.000117978656 0.0005207546 0.002419626 0.0010960955 0.0011541263
-3.2369597e-05 -5.6708327e-06 0.0004591826 0.0007254821 0.0013218615 0.0008452557 0.00021835792 -5.867979e-06
0.0009055172 0.0012041046 -0.0002827957 0.0005660581 0.0005450777 0.0013485288 0.0013245075 0.0009158455
0.0024843907 -0.00080769666 0.00032076886 0.0016689047 0.0017866015 0.0037899087 0.00010853235 0.000834728
0.005234537 0.0007059441 0.0030453098 0.00018634567 0.00021326201 1.0319376e-05 0.0011071071 2.7338269e-11
-0.0006914712 0.00011596016 0.0004784336 0.002731636 2.3975319e-05 0.00092504045 1.2268971e-22 -0.00049192685
0.0018677631 0.0011743266 0.0024703923 0.0027088225 0.00092292204 0.00067284703 0.001211445 0.0018316156
-0.002365997 0.0005175912 0.0043070656 0.0008237712 -0.00064675877 -0.0032283252 -0.0016409275 0.0047419183
-0.0027185583 -0.0033288174 -0.0021340454 -0.0042342474 -0.0039540273 -0.0029589327 0.00056226854 -0.00093740865
-0.0007665969 0.0036677849 -0.003626259 -0.0018156981 0.0030076378 -0.0023747701 -0.0041645234 -0.0010192187
0.00078172487 -0.0051958314 0.0032752417 0.0012947851 6e-45 -0.00065436633 -0.0010350859 -0.0003423449
0.0005846495 0.0041681277 0.0026035924 0.0013122514 -0.0015040676 0.0022084874 6e-45 -0.0014812977
-0.0026174546 -0.0045737536 0.0030423126 9.202754e-05 -0.0013564128 -0.005607656 -0.0054228418 0.0027117175
-0.0051016826 -0.0035075177 -0.00024950062 0.00046312943 -0.0020564438 -0.0017761618 0.0014764526 -0.0044438313

exp_avg_sq f4 [10, 100]
00000000: a70e ef38 78ab e537 f22d 7539 ea39 7739
00000010: 5fb5 9e39 bdbe e138 0322 6839 8a0d f638
00000020: 249b 8e37 0d61 d338 c839 a938 43e9 b139
00000030: 7259 c637 9288 5538 8477 2038 4a6e 4938
00000040: f0f7 5f39 5995 1139 9286 1e39 4bd3 d937
00000050: 71e9 7039 423c 3839 38e4 4e39 0f05 e439
00000060: 0535 0939 5568 5a39 a3f2 4638 13ae 6f38
00000070: 6bf6 d32d 5cc6 3938 f0e8 1438 bbee a538
00000080: 7e51 6739 44ed e338 d39f ea36 7b52 a737
00000090: b52f 3238 eab6 1b39 18cd da2e ef0e d538
000000a0: 0980 1a38 ca1b d338 30b7 9e38 04bb 3738
000000b0: 6899 c238 b7c9 9d39 341d a438 3cd4 9238
000000c0: e3bb 3838 9565 0239 5b6f 4639 db6f f836
000000d0: b23e 4138 b780 0d39 de60 ba38 a855 e738
000000e0: 9202 2f39 06a7 6338 3f36 9838 7e40 ac39
000000f0: 091c 6239 c238 8e39 10ec 5b39 ca63 8c38
00000100: be53 8238 0a74 eb38 685b c939 f122 ee38
00000110: 92da c039 a709 9937 d64a 7939 713d 1439
00000120: 6e2a 1538 c088 4937 d0e5 3639 142c 0c39
00000130: 6049 8638 84ef 8f38 8137 fc39 f098 f837
00000140: 5ff3 fc37 03f4 a039 a729 2339 fbc9 6a31
00000150: 38f6 9637 c1c6 3a37 169a c939 8de5 c738
00000160: cca2 7837 cf3f a838 83cb a034 f80e dc37
00000170: f273 ba38 1091 7838 fec5 0039 a814 c337
00000180: 8edc a338 a765 a537 0701 9f39 8052 8738
00000190: c4c0 8437 bdd1 c538 39d8 db37 c1c1 5235
000001a0: f210 c538 f755 0238 1aca d737 349c a737
000001b0: 6f53 ab38 1543 6239 9a43 0138 9d3a 5838
000001c0: 1397 9239 6ef8 4438 e872 9e37 0143 ab38
000001d0: 78ca 4738 7669 6237 a521 2439 1727 bd38
000001e0: a02d 6339 889d 1e38 c7a3 da38 6bf4 5738
000001f0: a8b3 1e38 50d1 9d38 9522 ce38 83b4 d536
00000200: 3ef5 fb2d 78d9 4a38 6b6c 3339 fbaf 0238
00000210: 6d2d 1a39 0826 9f39 6e6b 3439 e7a5 8138
00000220: 1852 8638 3273 a837 3970 7930 58ee 8e38
00000230: 688c 9938 f7d4 6539 94a0 6838 caa0 a039
00000240: 9f6b 7738 5037 ac38 5f46 9a37 e365 1338
00000250: 2e7a ac38 adcf 5338 7b6d 1c38 db12 9439
00000260: 0a62 dd38 eac0 5c37 9a7a 8037 d20e 1438
00000270: fdb3 ce38 a466 0f38 03c9 8a37 3885 8738
00000280: e935 3d38 1586 3d38 5863 f138 084c e137
00000290: fad0 1c38 e3e7 5a38 1320 9c38 2fce 8a39
000002a0: 72bd 7439 9f48 c537 23e1 3138 8550 6439
000002b0: 0a44 c038 2886 cd38 b0b2 8137 63e4 2138
000002c0: 9361 9739 efa2 ef37 91e7 5939 3b4a e038
000002d0: f1c7 e538 6670 9e37 3d0d 5938 b36b 9430
000002e0: c802 e338 43d5 7a36 4910 ac38 7de6 e138
000002f0: fbaa 3c37 8370 df37 a726 5533 07a6 6239
00000300: dcb5 a039 4da7 9738 1171 aa38 4ea9 2839
00000310: 07d1 1237 1387 a138 d5b8 0d39 b704 7a39
00000320: 9b45 9138 1132 0e39 d155 bb39 af81 6638
00000330: 53a4 033a b0e1 0b39 0ed4 1139 235f 8239
00000340: 2d45 f138 39b3 ea39 95a1 7138 e4f9 9a39
00000350: 2f9e 6339 b4c5 5c39 bcbc 4039 940a a139
00000360: b477 6039 bf0d 7639 db6a fa39 2f2e 8f38
00000370: 192b ed39 9221 8239 0be5 7a39 099e f439
00000380: 7ee3 aa39 08f1 dc39 31dc d639 f2ba b138
00000390: c1ff a92d ef73 7039 a297 5139 a2e8 9938
000003a0: 4c5f 9c39 eb88 fb39 1758 d638 83ec 3e38
000003b0: e59e 1939 110d 9c38 7a75 6732 7ea5 bd39
000003c0: 9f68 0a39 8da3 8c39 b928 5038 58e9 7438
000003d0: c4dd c939 fbe0 c939 c840 a438 08b8 2639
000003e0: 3a49 0b39 f7b2 2b39 f27e 8039 2e2a 3339
000003f0: 3690 9039 e246 1339 55f1 e538 70c5 ed38
0.00011399137 2.7378774e-05 0.00023382137 0.0002357733 0.0003027124 0.00010764364 0.00022137914 0.00011732716
1.6999962e-05 0.00010079341 8.0693106e-05 0.00033933864 2.364509e-05 5.091035e-05 3.825828e-05 4.802485e-05
0.00021359301 0.00013883914 0.00015118186 2.5966807e-05 0.00022975147 0.00017570055 0.00019730709 0.00043491318
0.0001308509 0.00020828967 4.743285e-05 5.714416e-05 2.4097354e-11 4.4292174e-05 3.550289e-05 7.91228e-05
0.00022060235 0.00010868398 6.9923494e-06 1.994636e-05 4.2482938e-05 0.00014850093 9.949924e-11 0.00010159413
3.6835703e-05 0.0001006644 7.5681484e-05 4.3804772e-05 9.279215e-05 0.00030095663 7.825569e-05 7.001354e-05
4.4044e-05 0.00012435608 0.00018924235 7.4039976e-06 4.6073175e-05 0.00013494758 8.887214e-05 0.00011030893
0.00016690258 5.427657e-05 7.258029e-05 0.00032854447 0.00021563483 0.00027126638 0.00020973408 6.6943074e-05
6.214481e-05 0.00011227287 0.0003840581 0.00011355233 0.0003678394 1.8243516e-05 0.00023774369 0.00014137269
3.5563884e-05 1.2012373e-05 0.00017442484 0.00013367861 6.403285e-05 6.8633846e-05 0.0004810654 2.963512e-05
3.015407e-05 0.0003069938 0.00015560408 3.4166294e-09 1.7996048e-05 1.113274e-05 0.0003845251 9.5318166e-05
1.4819856e-05 8.0227495e-05 2.9950397e-07 2.6233014e-05 8.890768e-05 5.9262908e-05 0.00012280789 2.325543e-05
7.813527e-05 1.9716868e-05 0.0003032761 6.4526685e-05 1.582539e-05 9.432759e-05 2.6207521e-05 7.8513045e-07
9.396848e-05 3.1074476e-05 2.5724108e-05 1.998069e-05 8.169456e-05 0.0002157803 3.0818956e-05 5.1553e-05
0.0002795985 4.696141e-05 1.8888575e-05 8.166396e-05 4.763386e-05 1.3495204e-05 0.00015652792 9.019503e-05
0.00021665404 3.7816848e-05 0.00010425556 5.1487626e-05 3.7837453e-05 7.525331e-05 9.829287e-05 6.368909e-06
2.8644306e-11 4.8363087e-05 0.00017111159 3.115831e-05 0.00014703507 0.0003035518 0.00017206158 6.182101e-05
6.404909e-05 2.0080803e-05 9.074515e-10 6.8154826e-05 7.321761e-05 0.00021918477 5.546266e-05 0.00030637375
5.898962e-05 8.211902e-05 1.8391e-05 3.514242e-05 8.224357e-05 5.0499733e-05 3.729526e-05 0.00028242808
0.000105563624 1.3157938e-05 1.531588e-05 3.5299752e-05 9.856371e-05 3.418945e-05 1.6544485e-05 6.4621156e-05
4.511132e-05 4.5185985e-05 0.0001151028 2.6857495e-05 3.7387923e-05 5.219121e-05 7.444634e-05 0.0002647503
0.00023340227 2.3518047e-05 4.2409763e-05 0.0002177377 9.167947e-05 9.80015e-05 1.5461206e-05 3.8598093e-05
0.00028873663 2.8566892e-05 0.00020780998 0.00010694979 0.00010956813 1.8887407e-05 5.174916e-05 1.0799027e-09
0.000108247215 3.7377038e-06 8.2046325e-05 0.00010771768 1.1245483e-05 2.6636064e-05 4.962808e-08 0.0002161489
0.00030653074 7.231403e-05 8.127292e-05 0.000160848 8.750946e-06 7.702238e-05 0.00013515663 0.00023843614
6.927104e-05 0.00013560826 0.00035731358 5.495705e-05 0.00050217396 0.00013340148 0.00013907274 0.00024866415
0.000115046605 0.0004476549 5.7609363e-05 0.00029559352 0.00021707335 0.00021054485 0.00018380856 0.00030716194
0.00021406898 0.00023465509 0.0004776333 6.827374e-05 0.00045236273 0.00024820544 0.00023927183 0.00046657052
0.00032594422 0.00042141252 0.00040981316 8.474839e-05 1.9326653e-11 0.00022931372 0.00019988281 7.33894e-05
0.0002982564 0.00047976463 0.00010220723 4.55198e-05 0.0001465041 7.4410935e-05 1.3472681e-08 0.0003617219
0.0001319968 0.00026824736 4.962899e-05 5.839145e-05 0.00038502936 0.0003850533 7.832196e-05 0.0001589955
0.00013283352 0.000163745 0.00024508644 0.00017086483 0.00027573266 0.00014045418 0.000109645225 0.00011337816

exp_avg f4 [10]
00000000: 5856 5e3a 2e9d 273a ac94 e3b6 1805 91ba
00000010: 1886 18bb 57d4 e4ba a37d 9dba 7fcc 3cb8
00000020: 74d3 143b 5346 2f3b
0.0008481494 0.0006393966 -6.782435e-06 -0.001106414 -0.0023273285 -0.0017458302 -0.0012015592 -4.5013145e-05
0.0022709044 0.0026744797

exp_avg_sq f4 [10]
00000000: 9aac 5c38 e04f 6638 df03 bc38 5c3b 0439
00000010: 0bb1 be38 6197 ee38 0318 8038 555e a538
00000020: 4142 1639 40b4 0439
5.2612835e-05 5.4910663e-05 8.9652596e-05 0.00012610614 9.092883e-05 0.00011376921 6.107988e-05 7.885384e-05
0.00014329796 0.0001265565

layer1.weight f4 [100, 784]
00000000: 57f2 383c eef6 6f3c ca5c b03c d3a7 05bc
00000010: 255d aeb9 1ced edbb 8a67 a63b 5ccf a3bb
00000020: 2b0f 12bd 5c80 7a3b 93bc 29bb e518 d23b
00000030: c5b3 143d e60f f3ba 9ff6 8bbc 5b49 c6b9
00000040: 8358 b8bc 2525 a7ba 9c84 25bc 8af4 88bb
00000050: 8ae8 a6bb 01cd ca3b b71d 89b8 78d1 e83c
00000060: e06f 00bc 6a34 5ebc c5f3 233c f7a5 553c
00000070: 73cc 4fbc 9ed6 ce3c 5ca9 5ebb 0710 0d3d
00000080: ac2a 693d d68d ca3c 28f8 3d3d 0330 993d
00000090: 4a18 823d db76 a03d c0d1 9f3d bc8b 943d
000000a0: 55ed a53d 59f2 f73d 3da4 753b bf09 ae3b
000000b0: 78a9 993c 3eea d33d 433a 043e 8fb9 063e
000000c0: 4cf3 b43d f35a 4f3d c2ef 433d 41d2 9b3d
000000d0: b013 063d b7b7 04bd 93c6 e33c 957d a03c
000000e0: 9594 83bc 8a67 603c ede9 2c3d 8cf7 0b3d
000000f0: e3b6 243d e654 2cbc 3b9f de3c b2ce 9a3d
00000100: 03d0 053d aa19 603d 8218 363d 769b 8e3d
00000110: 04a4 3b3d 207c 803c 25a5 ec3c cbb0 0f3b
00000120: d356 8a3d ffce ab3d c906 b43d 9937 f23d
00000130: c275 d93d da4c 003d 1cb5 803d 9741 c83d
00000140: da53 77bc a937 79ba d17e ecbc e1fd 323c
00000150: cecf f03c f41e 0fbd 2420 89bc 3e7a 503d
00000160: ddcb 063c a0be a1b8 f3b2 c63b f29d 0bbd
00000170: 1caa f9bc 4618 07bd 6a8b 62bc b43f 03bd
00000180: 4e26 553c d8ac b5bc 48e8 fb3c a810 2d38
00000190: aece 013d ffa6 773d bf97 fa3d 1241 cc3d
000001a0: d610 0a3e 66e3 e03d 18ea 053e 9a3f da3d
000001b0: 8981 5e3d c25e 06bc 6707 273d e58d a2bc
000001c0: a129 69bc 130e a43c adb5 04bc cc8f 6abd
000001d0: c8e4 4cbd 4474 a5bd f6cf f0bd efc3 d4bd
000001e0: fe63 8cbd bb31 cdbd f334 14bd 1edb ecbb
000001f0: 900b 35bd bd35 8ebd 9a56 20bb 941c 923d
00000200: 957a 823d 1e65 ab3d b6a0 803d 4103 823d
00000210: 18c6 513d b817 053e 2fa3 0d3e 5c6f 0e3e
00000220: 11e8 d23d daff 343d 6df3 d53b 8a36 1c3d
00000230: 2198 e53c 2589 cfb8 7dbb adbc d15e c6bd
00000240: 9be6 13be 67e6 e5bd 0e0f 30be 9ba8 b6bd
00000250: d82b 6cbd 02b5 a8bd d8fa 36bd 9603 053b
00000260: df92 91bc 074a 8f3b 0d43 fa3b 522b 083d
00000270: c793 b13c e4bd 293d ac1f 643d ee52 9e3d
00000280: 40e6 b83d 1b7f f63d 968f 453d 4256 cb3d
00000290: 36d1 c83d f67d 8b3d 3237 563d 8a43 6f3c
000002a0: ca92 93bc 47c0 933c bb92 1c3c d9e2 fabd
000002b0: 8faf 1abe 0e41 10be 4792 e8bd 74d0 d0bd
000002c0: e57c 7bbd 3d90 8dbc f755 8abc c87e 35bb
000002d0: 1a62 323d f86a 2d3d 2fe5 a93d 38da e53d
000002e0: 5e3b 943d a8b4 bc3d 0ec1 af3d 3beb a43d
000002f0: 09b5 273d 92c6 9f3d 3479 373d d789 b83d
00000300: 55ab 0b3e f0be e53d 0bbb 7b3d f5d3 373c
00000310: 5c99 bf3c 02e6 8e3c 9e38 53bd 9d5a f5bd
00000320: 1316 62be 1fe6 2dbe cbc8 edbd 9a01 f8bc
00000330: d699 73bc 13b9 993c d7cd 053c 4b20 753d
00000340: a0a7 763d 8709 903d 2f8c 273d 8346 a93d
00000350: 82bc 6e3d b26e 923d af41 cc3c 6350 483d
00000360: 3680 5d3d 74c1 0b3d d8db 0bbd cfff 95bb
00000370: 7047 143d 49a0 a63d a8c4 923c 67b3 173c
00000380: a56d f43c 64f1 93bc a17f 85bd 483e dbbd
00000390: dca9 2ebe 794c 07be 6afc e2bd 980a a8bd
000003a0: d7f3 a1ba f3d0 173d 3a1f 793d b127 c93c
000003b0: e889 643d 28b6 7f3b eea2 173c 1927 5dbd
000003c0: 0882 30bc 472a cebc 7a81 abbd 268b b4bd
000003d0: f5bc bfbd 609c dbbd 319c 0ebe 495a 94bd
000003e0: a318 873d 00b4 d03d 1f89 d13b e45b e6bc
000003f0: 12c4 9bbc 1924 d6bb dd62 61bd 9658 ebbd
0.011288247 0.014646275 0.02152862 -0.008157688 -0.00033257264 -0.0072609317 0.005078261 -0.0049990844
-0.035658997 0.003822348 -0.0025899753 0.006411659 0.036304254 -0.0018544167 -0.017085372 -0.00037820157
-0.022503143 -0.0012752159 -0.010102417 -0.004179542 -0.005093639 0.006188989 -6.538204e-05 0.028420195
-0.007839173 -0.013562301 0.01000685 0.013040057 -0.012683022 0.025248822 -0.0033975458 0.034439113
0.05692546 0.024725836 0.04637924 0.07479861 0.06352289 0.0783517 0.078036785 0.07253215
0.08101908 0.12106771 0.0037481927 0.0053112204 0.018757567 0.103474125 0.1291285 0.13156722
0.08835468 0.050623845 0.047836073 0.07608462 0.03273362 -0.032401767 0.027804649 0.019591132
-0.01606206 0.013696561 0.042215277 0.034171626 0.040213477 -0.010518288 0.027175536 0.07558955
0.03266908 0.054711975 0.044456966 0.069632456 0.045810714 0.015684187 0.02888734 0.0021925445
0.06754842 0.08389091 0.08790357 0.11827011 0.10618164 0.03132329 0.06284544 0.09778135
-0.015095675 -0.000950689 -0.028869065 0.010924787 0.029395964 -0.03494163 -0.016738959 0.05089783
0.008227316 -7.712585e-05 0.006063813 -0.034086175 -0.030476622 -0.032982133 -0.013827184 -0.032043174
0.013009621 -0.022177145 0.030750409 4.1261927e-05 0.031691246 0.060461994 0.122359745 0.09973349
0.13482985 0.10980873 0.13077581 0.10656662 0.054322753 -0.008201303 0.040778544 -0.019843051
-0.0142311165 0.020026242 -0.0080999555 -0.05726604 -0.05002287 -0.080788165 -0.117584154 -0.10388934
-0.068550095 -0.10019251 -0.03618331 -0.0072282692 -0.04420048 -0.069438435 -0.002446568 0.07134357
0.06371037 0.08368896 0.06280653 0.06348277 0.051214308 0.12997329 0.13831781 0.13909668
0.102981694 0.04418931 0.0065292628 0.03813795 0.028026642 -9.896074e-05 -0.021207565 -0.096860535
-0.14443438 -0.112255864 -0.17193243 -0.08918878 -0.057659 -0.082376495 -0.044672817 0.0020296327
-0.017770229 0.0043728384 0.0076373876 0.03324444 0.021676911 0.04144086 0.055694267 0.07730661
0.09028292 0.12035962 0.048232637 0.09928562 0.09805529 0.068111345 0.052298732 0.014603505
-0.01801433 0.01803602 0.009556468 -0.12250299 -0.15106033 -0.14087316 -0.11356025 -0.10196009
-0.061398406 -0.017280692 -0.016886694 -0.0027693976 0.04355059 0.04233834 0.082956664 0.112232625
0.07237886 0.09214145 0.08581744 0.08052679 0.040944133 0.07801546 0.044793323 0.09010666
0.13639577 0.11218059 0.061457675 0.011219968 0.023388557 0.01744366 -0.051567666 -0.11980174
-0.22078733 -0.16982315 -0.11610564 -0.030274201 -0.01486822 0.018765008 0.008166752 0.05984525
0.060218453 0.07033067 0.040905174 0.08265402 0.058285244 0.0715002 0.024933664 0.048904788
0.05407735 0.03412004 -0.034145206 -0.004577614 0.03620094 0.08136041 0.017916039 0.009259081
0.029837439 -0.01805944 -0.06518484 -0.107052386 -0.17056984 -0.13212766 -0.110833004 -0.082051456
-0.0012355995 0.037064504 0.060820796 0.02455506 0.05579558 0.0039018486 0.009255154 -0.053992365
-0.010773189 -0.025166644 -0.08374305 -0.08815603 -0.093622126 -0.107231855 -0.1392677 -0.07243783
0.06596496 0.10190582 0.00639452 -0.028119989 -0.019014392 -0.006535065 -0.055025924 -0.11491506

layer1.bias f4 [100]
00000000: b9b4 543d 2f78 603c 0196 eb3c afed ee3d
00000010: 390d b73d 53cf 163e 76d3 c93d 286f d63d
00000020: e9aa e93d eefb e2bc cb4c eb3d 44ec bebd
00000030: ddb4 a63d 8f3b 9dbd 5614 f33d fb6a 17bd
00000040: a177 523b c43f a9bc 8770 c03b 6c63 0f3e
00000050: 7841 eebc afd1 0e3e c883 a3bc 6430 00bb
00000060: 2885 f7bb d83f 92bd 7ac4 06bd 927d e83d
00000070: c300 a7bc 6906 9f3d e686 c93d a5fc 743d
00000080: e5c7 0ebd 716e 113e 589b 0b3d 1792 993d
00000090: 1398 d33c 823e d43d 1475 a8bc 0abc 8cbd
000000a0: e03b 173e 0332 c53c 5e54 953d 7b18 473e
000000b0: 86d0 813c d708 0b3b f796 b53d 6c35 9b3d
000000c0: c2d9 5bbd 904d debd dfad b3bd 6ba6 cf3d
000000d0: 8a4a 8fbc 870b ef3b 0f51 903c ad4b 8b3d
000000e0: e926 38bd 5027 453d 7f16 413d bfaf 923d
000000f0: bd56 abbc 263a 9abd e8dc 793c f415 db3d
00000100: a28e 8e3d 13f1 d6bd 05f9 43bd b8e2 9f3c
00000110: ce8d aebd c107 8e3d dbac a53d a8ab 1b3d
00000120: 6ad6 0fbc efb6 c53c 6b20 c63d b344 cdbc
00000130: 439a 323e 7484 683e 44f9 59bd 2f3e 56bd
00000140: c872 223e c612 8b3d 87e0 4c3d dd87 d5bc
00000150: 15ce 3f3d 8b15 d43d d5e9 7abd 433f debc
00000160: 4cce eb3d c2e4 d73d 0488 e53b 6cf7 e83d
00000170: 3f00 f83c ecf9 18bd b8cb acbd 9b15 04bd
00000180: aad1 133d 86d5 16bd 33c6 b2bd 8bff 843c
0.051930163 0.013700529 0.02875805 0.11666428 0.08938069 0.14727525 0.09854786 0.1047042
0.11409552 -0.02770802 0.114892565 -0.09322408 0.08139966 -0.076773755 0.11869113 -0.03696726
0.0032114761 -0.020660289 0.0058727893 0.1400277 -0.029083952 0.13947175 -0.0199603 -0.0019560093
-0.0075537153 -0.071410835 -0.03290222 0.11352076 -0.020386105 0.077648945 0.09840183 0.059811253
-0.034858603 0.14202286 0.034083694 0.074985676 0.02582935 0.10363485 -0.02056364 -0.06871803
0.14768934 0.024071699 0.072914824 0.19442932 0.015846502 0.0021214986 0.08866685 0.07578549
-0.053674467 -0.108546376 -0.08773398 0.101391636 -0.017491598 0.0072950753 0.017616777 0.068015434
-0.044958983 0.048133194 0.047140595 0.07162427 -0.020915383 -0.07530622 0.015250422 0.106975466
0.06960799 -0.104952 -0.047844905 0.019517288 -0.08523141 0.06935073 0.0808961 0.0380055
-0.008779148 0.024135081 0.09674152 -0.025057172 0.17441659 0.22706777 -0.053216234 -0.052305397
0.15864098 0.0679069 0.050018813 -0.026065761 0.046827395 0.103556715 -0.061258156 -0.027129775
0.115139574 0.10541679 0.0070047397 0.11375317 0.030273555 -0.03734772 -0.08437294 -0.032247167
0.036088623 -0.036824726 -0.0872921 0.016235134

layer2.weight f4 [10, 100]
00000000: 7497 c33d f789 babc 847c f93d 6334 1b3e
00000010: 62ea 863c 69b0 293c 850c 2a3e 1441 79bc
00000020: 0726 70be cf50 36be 3b92 ed3d c6e9 f13d
00000030: 0e61 413d dae4 1abe 5a81 31be a084 063d
00000040: 47b7 033d d4aa ef3b 0f1d db3d 466a 36be
00000050: e8b7 de3d 84fd 463e ee3c 693c a168 2d3e
00000060: bc59 0dbe 3e6d b53d 6f39 57be 1958 833d
00000070: 3a8e 813c d10a 1abe 4060 64be 23c0 b13d
00000080: 74a0 c03d 624a 1fbe 38a8 2bbe ef29 5bbe
00000090: 4e31 75be 65fe 813d 2165 3b3a 0e0d 8f3d
000000a0: ffee 60be f0f9 16be 5610 7e3e 666c babd
000000b0: a15f ac3c 5812 c03c 11f0 a93d f4a0 aebd
000000c0: fcb6 d0bd 2b10 fbbd 12d3 653d 9c18 4abe
000000d0: e31d 82be 6e2e a23d 750d ccbc ccf2 3cbd
000000e0: 18f8 a63d 48a2 7fbe 1ef0 803d e2a7 d93d
000000f0: 1ae5 323d 34d9 ef3d 46dc a63d fec8 dfbc
00000100: e9af 773d 9a93 123d 25fe 0c3e 7fc7 c0bd
00000110: 839c 05bd 6809 65be 2b8f 093e 3d06 56be
00000120: 2724 13be e3b1 9bbd 1402 cf3d a6fc 8c3c
00000130: bb54 dfbd bfae c6bd 4f76 c83d 060f 52be
00000140: 6b72 4ebe 6f30 283e 0c6e bd3d fbc6 a1bd
00000150: 1c3c 30be 423b 6fbe 64d8 043e 519f 47bd
00000160: 402b 81bd 34c3 05be 3b4e 83bb 24c8 8ebe
00000170: ee89 80be 30e8 2fbe 10dd 0abe 9f60 e63c
00000180: 5584 723d 8dc7 50be ade0 003e edc2 75be
00000190: 607a c5bd 0a97 013e 67ab 32be 0acc c4bd
000001a0: 0af4 2ebe 6b8e 6bbe b20a f1bd e95d 5cbe
000001b0: b691 fa3d ef3a 57bd 1132 2d3d 0ec4 39be
000001c0: 57fd 183e a24e 7bbe d008 5b3c dbd1 b33d
000001d0: 10e4 4dbe 65a2 2fbe 8d22 db3d 052e de3d
000001e0: a26f 2d3e 1fef 95bd ce26 e2bd d6a8 04be
000001f0: 7984 8ebe a3ca 30be 2f8a bdbd 4d93 25bd
00000200: 7d97 1a3d 7d29 f6bd 35ab 3a3e 5787 d3bc
00000210: 21d6 1f3e e701 1d3e 260a 303e ad64 e73c
00000220: 5901 d03d 2108 3a3e b64c bbbc 0281 b43c
00000230: 910f c43d a687 f53d 8552 c43e 9e56 dc3d
00000240: c77c 52be 2d51 60be 2650 aa3d dbf6 0cbe
00000250: 6c96 e73d 3ab9 80be ae86 83bd b92d 543e
00000260: 48ee e13a 61a8 19bd e525 88be 23bd 79be
00000270: 8e0a bdbd 477d 4abe aeef e7bd 9cc0 e9bd
00000280: 666f 59be f32f 35be 5ee5 05be d624 63bd
00000290: 668d 823e e163 8e3d 2870 71be 5803 ce3d
000002a0: 40b0 1abe e02e 053e 7df9 f9bd 7ac4 183e
000002b0: 74d5 d33d 784e 003e 97de 1abe 8c69 1cbe
000002c0: bbe4 903d 81af 54be a920 4dbe 843b fc3d
000002d0: 788c e83d 5535 38be 4ebe 873d 119e 09bc
000002e0: 5427 a23d 1328 943d 62fb 26be fd4c e4bd
000002f0: 8c68 7a3c 5466 89be 44ea 683d f0ec 1f3e
00000300: 70b8 9f3d 9e45 a73d 3bd4 1f3c 79b4 b33d
00000310: 6465 50be a744 c73d 394f af3d 0c1f 103e
00000320: b600 26be fd6d f83d c01f e93d 2b24 e2be
00000330: 98d2 0f3d 7a40 92bc 3962 98bb 33f6 2a3e
00000340: 0485 353e 6990 3f3d 6b6a fdbc d12c 84bd
00000350: cecb 313d a44f aa3d 7019 803e 7564 3e3e
00000360: e29e 00bd 89d9 103e f3c3 503e 2018 623d
00000370: f725 d73d b26b 493e b550 4fbe ef69 c63d
00000380: 0d0b 123e 9945 123e b63f 303e e4a9 883d
00000390: 3f98 b23d 7443 be3d 51cc 17bc e7bf 84bd
000003a0: b407 643d f91f 713d da85 1bbe e6f9 01be
000003b0: fd23 ff3d be68 61be 6eaf 29bd b602 393e
000003c0: fc02 003e 7cbd 0bbe ef3f 28be 34fd 26bf
000003d0: cf0c 013e 74e6 a2bd 4049 f6bc 043f 0a3d
000003e0: adf4 b73d 0253 45be c775 743d e35e 4c3e
000003f0: 2467 bc3d 0ff0 e83b 3fb4 42be a7dd 15be
0.09550372 -0.022770865 0.121819526 0.15156703 0.016469184 0.010357001 0.16606338 -0.01521327
-0.23452006 -0.17804264 0.11600157 0.11812167 0.0472117 -0.15126362 -0.173345 0.032841325
0.03215721 0.0073140655 0.10698902 -0.17813978 0.10874921 0.19432646 0.014235718 0.16934444
-0.13803762 0.08858727 -0.21018003 0.06413288 0.01581489 -0.15043189 -0.22302341 0.08679225
0.09405604 -0.15555719 -0.16763389 -0.21402715 -0.2394459 0.0634735 0.0007148553 0.06984912
-0.2196617 -0.14743781 0.24810919 -0.091027066 0.021041693 0.023446247 0.08297742 -0.08526793
-0.101911515 -0.12258943 0.056109495 -0.1973595 -0.25413427 0.07919012 -0.02490876 -0.046129987
0.08152789 -0.24964249 0.06295799 0.10627724 0.04367552 0.1171135 0.081474826 -0.02731752
0.060470495 0.035785295 0.13768823 -0.09413051 -0.032619964 -0.2236687 0.1343352 -0.20900817
-0.1436926 -0.076022886 0.10107818 0.017210316 -0.10904833 -0.09701299 0.097881906 -0.20513543
-0.20160834 0.16424726 0.092495054 -0.07899281 -0.1721043 -0.23362449 0.12973171 -0.04873592
-0.063070774 -0.13062745 -0.0040071285 -0.2788707 -0.25105232 -0.17178416 -0.13560891 0.028122244
0.059208233 -0.20388623 0.12585707 -0.2400014 -0.09642482 0.12655273 -0.17448197 -0.0960923
-0.17085281 -0.23003547 -0.11769618 -0.21520199 0.122348234 -0.052546438 0.042284075 -0.18141195
0.14940391 -0.24541715 0.0133688 0.08780261 -0.2010653 -0.17151792 0.106999494 0.10848621
0.16937116 -0.07320999 -0.11042558 -0.12955031 -0.27835444 -0.172648 -0.09254872 -0.04042368
0.037742127 -0.12019632 0.18229373 -0.025821371 0.15609027 0.15332757 0.17191371 0.028246248
0.10156507 0.18167163 -0.022863727 0.022034172 0.095732816 0.119887635 0.38344207 0.107587084
-0.20555411 -0.21905966 0.08316068 -0.13766043 0.113079876 -0.25141317 -0.064221725 0.20720567
0.0017237151 -0.037514094 -0.2659141 -0.24388556 -0.09230529 -0.19774352 -0.11325012 -0.114136904
-0.21233901 -0.17694072 -0.13075778 -0.05545505 0.25498503 0.06952644 -0.2357794 0.100592315
-0.15106297 0.13006163 -0.12205789 0.149187 0.10343447 0.12529933 -0.15123974 -0.15274638
0.07074877 -0.20770074 -0.2003199 0.12316039 0.11354917 -0.17989095 0.066280946 -0.008399502
0.079176575 0.07234206 -0.16306832 -0.11147497 0.015283715 -0.26835883 0.056864038 0.15617728
0.077988505 0.08167575 0.0097551895 0.08774657 -0.20351177 0.09729891 0.085600324 0.14074343
-0.16211209 0.121303536 0.11383009 -0.4416822 0.035112947 -0.01785301 -0.004650381 0.1669548
0.17726523 0.04676858 -0.030934533 -0.064538606 0.043407254 0.083159715 0.25019407 0.18593009
-0.031401522 0.14145483 0.20387249 0.05519879 0.10505288 0.19669989 -0.20245631 0.09688174
0.14262028 0.14284362 0.17211804 0.06673029 0.08720445 0.092902094 -0.009265021 -0.06481915
0.05567141 0.058868382 -0.15187779 -0.12692985 0.12458036 -0.22012612 -0.04142707 0.1806744
0.12501138 -0.13646501 -0.16430639 -0.6523011 0.12602542 -0.07954112 -0.030064225 0.033751503
0.08982215 -0.19269946 0.059682634 0.19958071 0.0919936 0.0071086953 -0.19014071 -0.14635335

layer2.bias f4 [10]
00000000: b8a9 9dbc bb4d fc3d 18b1 09bd c039 793d
00000010: f83f 59bc 0229 3e3d 7b64 573d 8d60 c73d
00000020: f4fd 6ebd f7a4 6bbd
-0.019245967 0.123195134 -0.033616155 0.06084609 -0.01325988 0.046425827 0.05258606 0.097352125
-0.058347657 -0.05753037
