lightning_logs/version_10/checkpoints/epoch=1.ckpt (torch, 958291 bytes, 12 tensors)

exp_avg f4 [100, 784]
00000000: 0000 0000 0000 0000 0000 0000 0000 0000
00000010: 0000 0000 0000 0000 0000 0000 0000 0000
00000020: 0000 0000 0000 0000 0000 0000 0000 0000
00000030: 518b 30a2 1849 c1a2 f967 2c98 f5df e595
00000040: 0000 0000 0000 0000 0000 0000 0000 0000
00000050: 0000 0000 0000 0000 0000 0000 0000 0000
00000060: 0000 0000 0000 0000 0000 0000 0000 0000
00000070: 0000 0000 0000 0000 0000 0000 0000 0000
00000080: d7cf b999 30d6 87a5 16e2 b8a7 fb83 2b2c
00000090: 4918 32b2 6702 6bb3 4ef9 adb3 322e eab3
000000a0: 8f59 9ab4 b342 42b4 ae70 73b5 0f32 6eb6
000000b0: bd35 c3b6 a8e9 39b6 52d6 39b3 b911 c6b3
000000c0: 8474 31b4 4f67 ecb2 3150 d5aa 4dce d39a
000000d0: 0000 0000 0000 0000 0000 0000 0000 0000
000000e0: 0000 0000 0000 0000 43e7 1993 5adc 40ad
000000f0: b02f 49ae f784 e5b1 7ff7 03b4 34bf f7b4
00000100: c70e b6b4 ea4a f1b4 678c f7b5 91cb 42b6
00000110: 6cb2 1eb6 72db 39b6 9889 1ab7 2661 b5b7
00000120: de3e b0b7 ed33 dbb6 040d 00b6 c615 d2b5
00000130: a8bd d2b5 707a 2cb5 92ea dfb4 48f6 73b4
00000140: 7966 2eb2 2c4f 36b1 0000 0000 0000 0000
00000150: 0000 0000 0000 0000 ef6d 1d99 4a73 57af
00000160: d64e 42af 1463 60b4 6dce 9435 c888 6737
00000170: 5a09 8637 f0c6 92b7 cd5f d8b7 bf74 a6b8
00000180: e9f7 dab8 4c70 4eb8 8b5e f737 e44c 9e38
00000190: 325c 6038 9b7b 6038 fe91 6f38 c3f9 3a38
000001a0: d352 0338 c31b 0637 8047 d9b5 dadf cdb5
000001b0: 7db6 84b6 d89b 53b4 369b 292c 0000 0000
000001c0: 0000 0000 5fab 1f1c 606d f02e 114b e02d
000001d0: d3d0 2137 843a fc38 cf3f 0039 a85a a538
000001e0: 6d98 ad37 a51b 9bb8 a6b3 50b9 ca15 0db9
000001f0: 2c4d 01b9 3b95 0ab8 7f11 2f39 7dcf b939
00000200: e930 4839 bf65 0539 0437 9338 33d2 8cb8
00000210: 9282 45b8 b604 35b8 01b6 15b8 4e7f d3b7
00000220: a53e a8b7 dbf7 c8b6 476c 58af 12af da2b
00000230: 0000 0000 0000 0000 aefc d92d 149f e133
00000240: e203 7537 19c8 0139 7a2e 1439 ef96 9e38
00000250: 4596 1eb9 bde7 08b9 c751 5537 1ff2 2db8
00000260: 98c8 0e37 7a85 d935 6d6b 0039 3a2d ed38
00000270: 0499 7339 72bc 3739 824a 3b39 d2ac 4039
00000280: b6a7 5b38 4a81 2e38 9ef5 cc38 46ba e1b7
00000290: 7e47 10b8 cc6b 80b7 2a63 8bb6 ad52 3232
000002a0: 0000 0000 44ea 142d 8e5c e02e bd86 8835
000002b0: 06f1 4d37 30b8 a937 eb53 9e38 07ff 3a38
000002c0: a51a 13b9 8c3d 94b8 d223 58b9 283f b8b8
000002d0: 6817 6eb8 a5be 6fb9 98ca c0b9 c5bd 3ab9
000002e0: f628 b039 1e68 a439 407e 9539 1e50 1539
000002f0: 5826 f338 f6e8 e8b8 bde9 8238 1339 f838
00000300: 362f 07b8 9a46 17b8 90bd deb7 ea3c 6db7
00000310: 0000 0000 43ea 942e 3faf da2e f635 b834
00000320: 688c a036 07fe 3db7 fcd5 bbb7 b28f 8cb8
00000330: acfb 25b9 2f83 d4b8 cd09 4cb9 4b9c 90b8
00000340: 5ba3 77b8 15ca c0b9 8cd3 aab9 1225 7db6
00000350: 90fd 3a37 fc34 0bb9 dcc3 dfb8 743e 0db8
00000360: c0dd bcb7 d30e 3fb9 e18d 51b9 307b 17b8
00000370: 007f acb8 03aa 8eb8 514a b2b7 9dfe 11b7
00000380: df97 0a9d 0789 1597 8370 2cb2 3789 23b4
00000390: ab4f 2036 22cf b237 49fe 5bb8 9c7e a3b8
000003a0: 8a7c 23b9 d391 3ab9 d887 0ab9 ccfb 1938
000003b0: 30b0 4b38 805b d537 7b59 95b9 350b 06ba
000003c0: 11d4 05ba 733c 17ba b3a2 01ba b1fc d7b9
000003d0: b787 4bb9 8ef5 81b9 be70 5ab9 bd4d f9b8
000003e0: f196 bcb8 347a 2bb8 3858 1935 5690 6bb0
000003f0: 0000 0000 bdf8 652c f681 8db1 9ca0 92b5
0.0 0.0 0.0 0.0 0.0 0.0 0.0 0.0
0.0 0.0 0.0 0.0 -2.3926201e-18 -5.2390146e-18 -2.2282972e-24 -9.2845705e-26
0.0 0.0 0.0 0.0 0.0 0.0 0.0 0.0
0.0 0.0 0.0 0.0 0.0 0.0 0.0 0.0
-1.9212498e-23 -2.3563906e-16 -5.131538e-15 2.4373825e-12 -1.03664854e-08 -5.4717386e-08 -8.1012885e-08 -1.0904877e-07
-2.8749898e-07 -1.8091923e-07 -9.0688525e-07 -3.5493902e-06 -5.817709e-06 -2.7703154e-06 -4.3268592e-08 -9.223317e-08
-1.6526798e-07 -2.7520995e-08 -3.7892045e-13 -8.760085e-23 0.0 0.0 0.0 0.0
0.0 0.0 -1.9425336e-27 -1.0962864e-11 -4.5744464e-11 -6.6798935e-09 -1.2290364e-07 -4.6146454e-07
-3.3910894e-07 -4.4944255e-07 -1.8443797e-06 -2.9026744e-06 -2.364769e-06 -2.7694882e-06 -9.211151e-06 -2.162212e-05
-2.101011e-05 -6.5327536e-06 -1.9081062e-06 -1.5652556e-06 -1.5701416e-06 -6.4253163e-07 -4.170766e-07 -2.2720735e-07
-1.0151433e-08 -2.652949e-09 0.0 0.0 0.0 0.0 -8.138911e-24 -1.9595095e-10
-1.7672205e-10 -2.089767e-07 1.1086937e-06 1.380052e-05 1.59784e-05 -1.7497194e-05 -2.5793817e-05 -7.9372425e-05
-0.00010441227 -4.9218812e-05 2.948872e-05 7.548349e-05 5.3491625e-05 5.352088e-05 5.7118006e-05 4.4578464e-05
3.130997e-05 7.993486e-06 -1.6188569e-06 -1.533884e-06 -3.955151e-06 -1.9707602e-07 2.4102504e-12 0.0
0.0 5.283018e-22 1.0933365e-10 2.5499188e-11 9.6449685e-06 0.00012027196 0.00012230802 7.884699e-05
2.0694186e-05 -7.396125e-05 -0.0001990335 -0.00013454925 -0.00012331147 -3.3040746e-05 0.00016695818 0.0003544054
0.00019091707 0.00012721772 7.019754e-05 -6.714873e-05 -4.7090063e-05 -4.315815e-05 -3.5693873e-05 -2.5212441e-05
-2.0056332e-05 -5.9893187e-06 -1.9683553e-10 1.5538423e-12 0.0 0.0 2.4782256e-11 1.0506315e-07
1.4604042e-05 0.00012376941 0.00014131694 7.562141e-05 -0.00015124034 -0.000130563 1.271483e-05 -4.1471907e-05
8.510564e-06 1.6206607e-06 0.0001224705 0.00011309465 0.00023231289 0.00017522441 0.00017861466 0.00018374927
5.236986e-05 4.1605243e-05 9.773228e-05 -2.690883e-05 -3.4398858e-05 -1.5308986e-05 -4.154067e-06 1.0379762e-08
0.0 8.464843e-12 1.0202782e-10 1.0172004e-06 1.227507e-05 2.0232139e-05 7.549658e-05 4.458337e-05
-0.00014028938 -7.068654e-05 -0.0002061271 -8.7855675e-05 -5.676542e-05 -0.00022863837 -0.00036772038 -0.00017809037
0.00033599854 0.0003135809 0.00028513558 0.00014239593 0.00011594285 -0.000111060144 6.24242e-05 0.000118361924
-3.2230477e-05 -3.606696e-05 -2.6552734e-05 -1.41404835e-05 0.0 6.771874e-11 9.944622e-11 3.4311932e-07
4.784717e-06 -1.1324423e-05 -2.2391781e-05 -6.7024856e-05 -0.00015829381 -0.000101333826 -0.00019458607 -6.895567e-05
-5.9041526e-05 -0.00036771657 -0.00032582541 -3.7721516e-06 1.1145501e-05 -0.00013275811 -0.0001066995 -3.3675184e-05
-2.2514607e-05 -0.00018220702 -0.00019984647 -3.6115933e-05 -8.225255e-05 -6.802755e-05 -2.125386e-05 -8.701955e-06
-1.8342663e-21 -4.831745e-25 -1.00373e-08 -1.5230476e-07 2.388823e-06 2.1315707e-05 -5.245049e-05 -7.7960285e-05
-0.00015591286 -0.00017792666 -0.00013211311 3.6712547e-05 4.856306e-05 2.5434187e-05 -0.00028486163 -0.00051133643
-0.0005105148 -0.00057692005 -0.00049452035 -0.00041196265 -0.00019410146 -0.0002478775 -0.000208321 -0.00011887725
-8.9926536e-05 -4.0883388e-05 5.7125317e-07 -8.5697616e-10 0.0 3.2680935e-12 -4.118415e-09 -1.0924591e-06

exp_avg_sq f4 [100, 784]
00000000: 0000 0000 0000 0000 0000 0000 0000 0000
00000010: 0000 0000 0000 0000 0000 0000 0000 0000
00000020: 0000 0000 0000 0000 0000 0000 0000 0000
00000030: 11f7 be2c 6cfb ee2d 50fd a22b 2ee1 1027
00000040: 0000 0000 0000 0000 0000 0000 0000 0000
00000050: 0000 0000 0000 0000 0000 0000 0000 0000
00000060: 0000 0000 0000 0000 0000 0000 0000 0000
00000070: 0000 0000 0000 0000 0000 0000 0000 0000
00000080: 21e3 0327 c7c6 ed28 3db9 dd2e 4d93 be2f
00000090: 9f84 e62f 6e78 1d2e a6b5 212f 249c 532f
000000a0: 2a7e f82f 2a1a 282f 1aad e230 9587 0531
000000b0: 189f 1831 3245 e92f b1df da2d b9e5 6c2f
000000c0: f676 e02e 20ca 842f 5f08 d02f ca53 422d
000000d0: 0000 0000 0000 0000 0000 0000 0000 0000
000000e0: 0000 0000 0000 0000 bb6a fa23 faf4 e82b
000000f0: 6a69 4c2b 8fc6 d92b a9af fe2e 3a4e 3530
00000100: 0ba5 3230 f741 0830 a514 2431 349f 9331
00000110: 31a2 f531 2f4a 1d32 9cd4 4a32 9311 6532
00000120: d76a 8432 e7c5 3432 1626 2f32 bbdf d130
00000130: ef5b e72f f16c d02f 696e 5430 229c 012f
00000140: f14e 092e 9baf 092d 0000 0000 0000 0000
00000150: 0000 0000 0000 0000 8d4e 902b 99f0 8b2d
00000160: 1668 2b2d d751 0831 6975 3d31 3163 0432
00000170: af0e 5432 2ba0 9232 1a60 3533 b1b7 9833
00000180: 70d3 ed33 b970 2334 ebaa 4534 6d33 6e34
00000190: 5ace 6634 c6c7 4b34 39c6 1b34 be56 bd33
000001a0: 5abd 6b33 8d09 1a33 e7aa 9332 4024 3f32
000001b0: d5d8 8d31 1a9b 502f 83fe e72d 0000 0000
000001c0: 0000 0000 03f5 0c26 a705 722d 7145 9d2e
000001d0: 8702 6d30 1689 7032 9a10 d132 48a2 6833
000001e0: 9082 e533 3375 3d34 5a8b 8c34 a927 e034
000001f0: 9967 2535 7aea 5d35 71ac 8835 e44b a335
00000200: a40f a035 0a8a 8c35 012e 6535 9192 2d35
00000210: d990 ef34 2b30 8334 0b57 0934 4061 4033
00000220: c9c2 a432 9766 3231 353c 1d30 4bf5 412e
00000230: 0000 0000 0000 0000 050d 862c 2026 dd30
00000240: 26f9 4a32 bbbf 6e33 7e78 ca33 fcde 3734
00000250: 8214 9e34 6030 f534 6d90 3235 a157 8635
00000260: cedb c235 c091 fd35 3e9d 1636 bafa 3436
00000270: f667 3936 8827 2536 1b02 0536 29e4 c935
00000280: debb 8335 3492 1d35 e361 9f34 2130 0634
00000290: 0d84 6333 2aac 8632 017f 8030 0932 2f2e
000002a0: 0000 0000 64f2 2126 9d10 6230 2f5f c031
000002b0: 939e ff32 8a16 c133 9228 4934 354e b234
000002c0: d286 0e35 dbe0 5b35 9f91 9b35 f970 d435
000002d0: c33a 1936 308b 4236 56be 6436 23c6 7d36
000002e0: c432 7c36 a711 6536 4ebe 3b36 78ab 1336
000002f0: c5e7 c435 88fe 6535 84a4 f934 ea44 7034
00000300: 08cc ae33 74e9 db32 205d b831 674c d430
00000310: 0000 0000 7194 262e 3b1e 4630 c1df 9631
00000320: f94d 1433 cdac 1134 f75f 9834 cdbc 0435
00000330: 4240 5935 1089 9d35 22d2 d135 6dfd 0d36
00000340: b119 4336 fede 6336 3e83 8036 291d 8b36
00000350: a648 8a36 b6da 7636 3f81 5536 668d 2436
00000360: cbe1 d335 5667 8335 69e5 0c35 108f a534
00000370: 7116 2b34 1e11 5d33 8369 0e32 801c 1530
00000380: e4f3 ee2e 7ef3 ea2e abae 4a30 8d1a 5031
00000390: 173c 0e33 9d07 3934 39b3 d134 816a 2835
000003a0: 2498 8035 507e b635 e07c fb35 b24f 2a36
000003b0: 651d 5736 9951 7036 8142 8036 a793 8936
000003c0: eab7 8336 ba59 6136 a1e6 4636 63d2 1236
000003d0: 6aeb c035 1c58 7635 0aa2 1835 4656 c134
000003e0: 8220 3534 f908 6a33 b2c2 0632 35b8 a32f
000003f0: 0000 0000 d930 362e 850c af30 a3d4 1632
0.0 0.0 0.0 0.0 0.0 0.0 0.0 0.0
0.0 0.0 0.0 0.0 5.4275547e-12 2.7169121e-11 1.1581101e-12 2.0106085e-15
0.0 0.0 0.0 0.0 0.0 0.0 0.0 0.0
0.0 0.0 0.0 0.0 0.0 0.0 0.0 0.0
1.8303029e-15 2.6398492e-14 1.00828214e-10 3.4665462e-10 4.193099e-10 3.580463e-11 1.4707399e-10 1.924581e-10
4.5200582e-10 1.5288806e-10 1.6492863e-09 1.9431117e-09 2.2209345e-09 4.243162e-10 2.488307e-11 2.1545689e-10
1.02074724e-10 2.4154279e-10 3.7840928e-10 1.1046228e-11 0.0 0.0 0.0 0.0
0.0 0.0 2.7150256e-17 1.6552586e-12 7.262165e-13 1.5473888e-12 1.1581786e-10 6.5958583e-10
6.4990563e-10 4.9570253e-10 2.3876876e-09 4.2963624e-09 7.1488775e-09 9.15547e-09 1.1806289e-08 1.333355e-08
1.5415408e-08 1.0522377e-08 1.0195e-08 1.5270339e-09 4.2083978e-10 3.7912387e-10 7.7282053e-10 1.1787951e-10
3.1220308e-11 7.826541e-12 0.0 0.0 0.0 0.0 1.0253618e-12 1.5909317e-11
9.743336e-12 1.9837125e-09 2.756986e-09 7.705965e-09 1.2343363e-08 1.7069473e-08 4.222975e-08 7.111465e-08
1.1074633e-07 1.5221566e-07 1.8409234e-07 2.2184186e-07 2.149549e-07 1.8978525e-07 1.4507613e-07 8.8167766e-08
5.4887416e-08 3.5864606e-08 1.719077e-08 1.11259055e-08 4.128291e-09 1.8972593e-10 2.6374685e-11 0.0
0.0 4.890431e-16 1.37573624e-11 7.151869e-11 8.622369e-10 1.4001008e-08 2.4338352e-08 5.4164303e-08
1.0687393e-07 1.7644633e-07 2.6178424e-07 4.1752108e-07 6.1618044e-07 8.2670124e-07 1.0182977e-06 1.2166533e-06
1.1925481e-06 1.0470987e-06 8.537609e-07 6.4660804e-07 4.462261e-07 2.4435698e-07 1.2790785e-07 4.4791932e-08
1.918069e-08 2.5960725e-09 5.7201827e-10 4.4100983e-11 0.0 0.0 3.8099545e-12 1.6090702e-09
1.1814597e-08 5.558807e-08 9.4282754e-08 1.7124324e-07 2.9444715e-07 4.5670004e-07 6.6520334e-07 1.0009281e-06
1.4518098e-06 1.8892388e-06 2.2443269e-06 2.6968032e-06 2.7627661e-06 2.4609926e-06 1.981977e-06 1.504207e-06
9.814937e-07 5.869981e-07 2.968728e-07 1.2497232e-07 5.2972656e-08 1.5677944e-08 9.349322e-10 3.9834833e-11
0.0 5.6186596e-16 8.224193e-10 5.5987566e-09 2.9758018e-08 8.991363e-08 1.8734343e-07 3.3211987e-07
5.309531e-07 8.1911065e-07 1.1590781e-06 1.582811e-06 2.283298e-06 2.898927e-06 3.4085438e-06 3.7815269e-06
3.7580476e-06 3.4133934e-06 2.7975943e-06 2.2004515e-06 1.4670592e-06 8.567954e-07 4.6499565e-07 2.2376813e-07
8.1396195e-08 2.5601118e-08 5.365692e-09 1.5446745e-09 0.0 3.7875873e-11 7.207494e-10 4.3910124e-09
3.452985e-08 1.3567042e-07 2.838203e-07 4.9448573e-07 8.0932307e-07 1.1737302e-06 1.563287e-06 2.115815e-06
2.9072219e-06 3.3955434e-06 3.829976e-06 4.1459175e-06 4.121178e-06 3.6784163e-06 3.1814704e-06 2.452021e-06
1.578644e-06 9.790335e-07 5.24879e-07 3.0837737e-07 1.593378e-07 5.147114e-08 8.289478e-09 5.4246385e-10
1.08663106e-10 1.0684341e-10 7.373539e-10 3.0283076e-09 3.3116603e-08 1.7232237e-07 3.9059685e-07 6.273986e-07
9.581022e-07 1.3596818e-06 1.8737301e-06 2.5378363e-06 3.2054606e-06 3.5810283e-06 3.8224393e-06 4.100107e-06
3.9255146e-06 3.357984e-06 2.9638543e-06 2.1878157e-06 1.4373629e-06 9.177036e-07 5.686021e-07 3.6011824e-07
1.6868765e-07 5.449053e-08 7.844095e-09 2.9780414e-10 0.0 4.1425394e-11 1.2736484e-09 8.779497e-09

exp_avg f4 [100]
00000000: 4ac9 ffb9 7ec0 ab3a 3e85 9f3a 42e6 d4ba
00000010: 45c9 8539 64ec 2238 399f 84ba 2de4 97b8
00000020: 3812 9dba c391 6db9 d7c6 cb39 ded6 afba
00000030: 1010 0139 a2ef fbb9 8204 223a a91c 52ba
00000040: 2b1d 99ba 8ede d139 2bd4 dfb9 6af3 e3b8
00000050: 5c95 963a c87e 9d3a 56ab f739 5669 b6ba
00000060: 9342 8fba 2fc5 0339 a4a4 f839 acb7 df3a
00000070: d35e 86ba 002f 483a 3b5b beb9 e388 933a
00000080: ca57 80b9 0dfe 123a 7ebc a13a c92e 1bba
00000090: 15cb 9eb7 8c7f 143a ff78 d601 aebe 53ba
000000a0: 8a40 5e3a 8b32 013a 5c92 d9ba 3a58 6339
000000b0: f2d1 36ba f209 b4b9 195f 9bba 94b8 b8b9
000000c0: 2c96 c8ba 430c 8f3a b665 613a 6ada acba
000000d0: 9070 1bb9 eaf4 9538 568d c53a 22a8 73ba
000000e0: 546d 87b9 2fd0 3c3a 8d18 0939 7bc2 ef39
000000f0: 26fd 04ba 11cf 01ba 21be 0db8 da63 2d3a
00000100: 5623 c839 0f46 e7ba 3451 a039 19a3 26ba
00000110: 0400 0000 0400 0000 004e bcba 2f49 fb39
00000120: 3669 26ba 7cac 0db8 a723 dcb9 8134 a9ba
00000130: eec7 a2b8 84da 4d38 d06f 90b8 e08d 18ba
00000140: b8a8 3b3a af00 db38 e753 b4b8 dfb3 5739
00000150: 1f9e 553a b68e a438 1e38 6fba 916a 8ab9
00000160: 0e57 55b9 70a6 cb39 1571 b708 b4ed cb39
00000170: 7407 b9b9 93f1 a838 b225 15b8 b91c 913a
00000180: 7442 cc39 526e 4eba 0400 0000 486f 1c38
-0.00048787362 0.0013103632 0.0012170447 -0.0016242939 0.00025517694 3.8843966e-05 -0.0010118253 -7.242742e-05
-0.0011983579 -0.00022656382 0.00038867324 -0.0013415476 0.00012308382 -0.0004805299 0.0006180481 -0.0008015135
-0.0011681666 0.00040029403 -0.00042691952 -0.00010869543 0.0011488604 0.0012015933 0.00047239166 -0.0013916891
-0.0010929875 0.0001256659 0.00047424913 0.0017068288 -0.0010251648 0.0007636398 -0.00036307596 0.0011256005
-0.0002447947 0.00056073145 0.00123395 -0.00059197523 -1.8929635e-05 0.0005664758 7.8784806e-38 -0.0008077425
0.0008478245 0.0004928491 -0.0016599405 0.00021681274 -0.00069740333 -0.00034339685 -0.0011853903 -0.00035232736
-0.0015303544 0.0010913688 0.0008598225 -0.0013187651 -0.00014823885 7.1504925e-05 0.0015072029 -0.0009294768
-0.00025830662 0.00072026526 0.00013074484 0.00045730532 -0.00050731224 -0.0004951815 -3.379409e-05 0.00066143053
0.000381733 -0.001764478 0.0003057808 -0.0006356701 6e-45 6e-45 -0.0014366508 0.00047928977
-0.0006348075 -3.377766e-05 -0.00041988233 -0.0012909324 -7.762002e-05 4.9079317e-05 -6.887282e-05 -0.0005819481
0.0007158625 0.00010442861 -8.598697e-05 0.00020571005 0.0008148867 7.8467114e-05 -0.00091254886 -0.0002640081
-0.00020345693 0.00038843183 1.1040497e-33 0.0003889628 -0.00035291503 8.055861e-05 -3.5559475e-05 0.0011071182
0.00038959424 -0.00078747154 6e-45 3.7296937e-05

exp_avg_sq f4 [100]
00000000: aee5 1b37 addc 1837 aaab b136 28b1 3137
00000010: 27ee 8737 e132 4a36 e1a4 2a37 b9de 6e37
00000020: 6754 5837 3e4b 3a37 7993 fa36 c989 4037
00000030: 1a68 3437 d3c8 ec36 c68c 4037 3df5 7c37
00000040: e24b 5e37 eb3c 6537 5d35 1b37 c7f3 4a37
00000050: 46b6 1b37 2934 8737 b4e4 6f37 4727 5137
00000060: 882f 5937 2f1d 2737 9e16 0f37 7035 2937
00000070: f472 1237 cbe2 3a37 1f3a 0a37 4ebb 1737
00000080: a1aa 9d37 06d4 4e37 676d c636 225b 2437
00000090: 6f1e 4f37 b791 2637 7235 7c30 b61b 1737
000000a0: 5736 3a37 5f32 4737 075c 5837 5d3f 4c37
000000b0: ba77 b436 6426 1537 47d9 3337 4f30 3b37
000000c0: e2cb fc36 e2a1 3737 f07d 1837 d05a 0c37
000000d0: a81d 1037 095e 5137 9541 2c37 d46d 4837
000000e0: 47a9 ea36 e9a6 2b37 90c3 fb36 1a4d 3537
000000f0: c7b7 4637 289f 0937 de01 5737 1c7d 1737
00000100: 7699 ce36 c9aa 7f37 ccdf 0d37 7dc6 1b37
00000110: 7936 1033 490b 0233 f6f4 9337 7246 f336
00000120: 40b6 4c37 e71f cb36 35d7 3c37 f7c8 3737
00000130: 197b 0b37 aaec c136 e783 7737 f3f6 4637
00000140: a3ff c736 092b 3037 34af 2b37 82ed 2837
00000150: 4ea6 1137 b069 0737 d84b 4137 cf54 0037
00000160: cec7 3737 616c 3937 741d 6933 d768 e836
00000170: eb91 0d37 8a79 4a37 deea 5737 2b8e 1f37
00000180: 854e 2e37 3085 4d37 1f85 5a32 8330 3237
9.292196e-06 9.111286e-06 5.2949954e-06 1.05912695e-05 1.6204152e-05 3.012996e-06 1.01711785e-05 1.4237762e-05
1.2894255e-05 1.1103983e-05 7.4677487e-06 1.1476172e-05 1.0753074e-05 7.056727e-06 1.1476868e-05 1.50774695e-05
1.3249899e-05 1.3663647e-05 9.251145e-06 1.2096897e-05 9.281159e-06 1.6117543e-05 1.4298759e-05 1.2466516e-05
1.2945275e-05 9.9607705e-06 8.52873e-06 1.0085627e-05 8.729043e-06 1.1139268e-05 8.238973e-06 9.043912e-06
1.8795314e-05 1.2327922e-05 5.913596e-06 9.79638e-06 1.2345247e-05 9.928298e-06 9.1753016e-10 9.006753e-06
1.1099116e-05 1.1873052e-05 1.289603e-05 1.21741e-05 5.378356e-06 8.890031e-06 1.071982e-05 1.1157316e-05
7.5339203e-06 1.0945341e-05 9.089228e-06 8.365794e-06 8.589974e-06 1.2479265e-05 1.0267268e-05 1.19465e-05
6.99345e-06 1.0231256e-05 7.5031494e-06 1.0806392e-05 1.1844509e-05 8.202893e-06 1.2815433e-05 9.029431e-06
6.1571436e-06 1.5238948e-05 8.456362e-06 9.284934e-06 3.3577155e-08 3.0278247e-08 1.7637834e-05 7.2501653e-06
1.2201781e-05 6.0535854e-06 1.125578e-05 1.0954441e-05 8.3137065e-06 5.7793995e-06 1.4753058e-05 1.1859217e-05
5.960422e-06 1.0500437e-05 1.0233187e-05 1.0068879e-05 8.681394e-06 8.071234e-06 1.1521355e-05 7.649141e-06
1.0954171e-05 1.1052093e-05 5.4276327e-08 6.9263438e-06 8.438229e-06 1.2068436e-05 1.2869683e-05 9.51024e-06
1.038949e-05 1.2249962e-05 1.2719538e-08 1.0620922e-05

exp_avg f4 [10, 100]
00000000: 35d6 3fbb 8b83 6db9 d42f b0ba 5ace 31bb
00000010: 05b3 1bba 4be9 ddb9 9f74 f1ba b824 2bbb
00000020: 2f4d b2ba 3fd9 d2ba 7808 56bb 7fac 763a
00000030: b230 efba ff9c 9aba f338 93bb 177b adb9
00000040: abb0 05bb 2a7d e6bb 904b 06ba f16d abbb
00000050: ac04 56bb bfa6 c9bb 3d38 54bb bbe0 44bb
00000060: dbf8 06bb 5dac 52bb e4d9 c3bb 7078 b0bb
00000070: 14be c4bb e6be 97ba ce62 0d3a aea8 6bbb
00000080: 77b8 bfb9 371f 1dba d92d 59bb 195c ea3a
00000090: f95d 09bb 6270 00bb aa14 1300 9a18 afba
000000a0: a666 87bb 00fd 2ebb a726 9cbb b6f3 5bbb
000000b0: 1cdc 16bb 5521 893a 7d59 bcba 57a6 4cbb
000000c0: 2b80 80bb d8d6 1ebb 2e3f 6dbb 0776 95bb
000000d0: 9e03 abb9 b0c6 17ba 6860 73bb e67f 14bb
000000e0: 1eb3 47ba 980e ed3a ea40 653a 29f5 2639
000000f0: 0f19 53b7 2978 42b9 4ff2 2abb 4b88 5639
00000100: ff02 883b e6af be3a 30cf 05bb 58cc d7bb
00000110: 0400 0000 0400 0080 1190 e1ba 27ba c5ba
00000120: b45b b73a cc45 47ba 9365 15ba cdbc 56bb
00000130: c0af cc39 960f bcba e453 cfba d3b1 5439
00000140: ab96 27bb 96dc 3dbb 970d 87ba 5ef4 a9ba
00000150: 38c5 04bb e6a8 1db9 c813 613a fbd3 cabb
00000160: 149d 123b 6806 81bb 8e92 4f03 e077 3dbb
00000170: f90e ec3a 0f72 d5ba 6552 e8b9 f351 d4ba
00000180: aaec 97bb f93a e5ba 0400 0080 a2be 6abb
00000190: 9784 4cbb 1abf 9939 9066 91ba a67c bfba
000001a0: b0c8 52bb 13d8 56ba 4d3a c9ba bce6 4eb9
000001b0: 362c e2ba f707 1dbb 9222 8cba 1a27 b8ba
000001c0: 5255 b1bb edbe ab39 745e 90ba 61e9 a9b8
000001d0: 43aa d8b9 a7dd 00bb 89fe b939 a576 26b9
000001e0: 99e5 0dbb 8ac9 b5bb cb8b d3b9 7e6c 3bbb
000001f0: 9d9a 82bb 37bf 4ebb 198d 13ba c58a 3dba
00000200: d093 fcba 4f15 5eba 133b 15bb fbd8 46bb
00000210: e24b f4ba 9d94 faba c013 efb9 1020 d9ba
00000220: 9c92 2eba fc35 bfb9 231b 0200 7c72 4eba
00000230: 2490 71bb 221e 73ba 6148 6dbb 5efe 2cba
00000240: f95f 1cbb 8c27 b7b9 5677 0cbb ed2b 8bba
00000250: d1f8 8dbb feaf b8ba 66da 1cba 5a99 e8ba
00000260: 79c7 3dba 64ed 55ba 59b5 aaba 6c9e 0eb9
00000270: 7a69 97b8 b4b1 9338 a0c4 a839 ba42 1eba
00000280: 16b7 aeb9 1416 ffba 91ea 5c39 f164 ed39
00000290: 0fa3 ab39 250b 24bb 4233 f138 b074 91bb
000002a0: 0400 0080 0400 0000 349a 07bb df17 20bb
000002b0: 6e73 21bb 16b7 ceb9 bd33 0c39 98a3 40bb
000002c0: 06a2 c9b9 4c38 9fb9 d8e7 c0ba fc46 4dba
000002d0: ac2a 69ba ad39 23bb 37f8 45ba 5a7a d7ba
000002e0: 31e1 97ba d8a3 42b9 bafb daba 97c2 1abb
000002f0: bb1f 2db9 c538 77ba fcae 6507 4403 e2ba
00000300: cb74 eeb8 644b e2ba 0e6a 69ba 964e f9b9
00000310: 4a65 b9ba 2dca fcba 0400 0000 444a adb9
00000320: 37ff 0abb ecf1 17bb 4379 5dba 71e4 98ba
00000330: 054f b0ba 6144 b339 8ca3 85bb 8a3d ea3a
00000340: 890b 08bb 22fb 20bb e9c4 c8ba ce33 65bb
00000350: 5240 753a 0e50 afbb a4e0 bcbb aec0 bdbb
00000360: 27ab 48ba 9cd3 46bb 9835 a6ba 3fa3 f9ba
00000370: 4413 91bb a741 c6b9 8300 47bb a3e6 a238
00000380: 4af4 24ba a37a 9f3a 1dfb 3cbb 1604 ad39
00000390: ba35 b9b9 699e f5b8 e90f ac38 1352 ca3a
000003a0: 103c 95bb 78c1 3ebb ab41 6dba ccc9 04bb
000003b0: 8819 92bb 8904 70ba 9252 0500 3cd1 bebb
000003c0: a2ae c8ba 06e3 033b e71b 733a af92 16b9
000003d0: 6822 08bb 5bc3 abbb a3ed c63a 7094 81bb
000003e0: c635 0dbb 9334 32ba e0de 0a39 835e 52bb
000003f0: 6cb4 3eba e236 e13a 0972 82ba d18c 5cbb
-0.0029271964 -0.00022651085 -0.0013441988 -0.0027131052 -0.0005939457 -0.00042326222 -0.0018421597 -0.0026114415
-0.0013603325 -0.0016086473 -0.0032658856 0.0009409859 -0.0018248765 -0.0011796056 -0.004492873 -0.0003308884
-0.0020399492 -0.0070339637 -0.0005122954 -0.005231612 -0.0032656593 -0.006153911 -0.0032382153 -0.0030041176
-0.0020595107 -0.0032146194 -0.0059769023 -0.005385451 -0.0060041044 -0.0011577278 0.0005393446 -0.0035958695
-0.00036567796 -0.0005993726 -0.00331389 0.001788023 -0.0020960553 -0.0019598235 1.752287e-39 -0.0013358772
-0.0041321097 -0.0026701093 -0.00476535 -0.003356201 -0.002301938 0.0010462204 -0.0014369931 -0.0031227076
-0.003921529 -0.0024236944 -0.0036200988 -0.004561189 -0.00032618357 -0.00057897996 -0.003713632 -0.0022659241
-0.0007617938 0.0018086014 0.00087453297 0.00015922323 -1.25824145e-05 -0.00018546045 -0.0026084369 0.00020459403
0.004150748 0.0014548271 -0.0020417683 -0.006585639 6e-45 -6e-45 -0.0017209073 -0.0015085385
0.0013989122 -0.0007601648 -0.00056990347 -0.0032766343 0.00039040856 -0.0014347907 -0.0015817848 0.0002028414
-0.0025571983 -0.002897059 -0.0010303733 -0.0012966504 -0.0020259153 -0.00015035606 0.00085860165 -0.006189821
0.0022371458 -0.0039375313 6.100007e-37 -0.0028910562 0.0018009833 -0.0016284602 -0.00044311877 -0.0016198739
-0.004636367 -0.0017488889 -6e-45 -0.0035819192 -0.003120696 0.00029324816 -0.0011093188 -0.0014609292
-0.0032163076 -0.000819565 -0.0015352458 -0.00019731646 -0.0017255608 -0.0023961046 -0.0010691455 -0.0014049739
-0.0054117823 0.00032757912 -0.0011014477 -8.102018e-05 -0.00041325585 -0.0019663365 0.00035475593 -0.00015875192
-0.0021651743 -0.005547707 -0.0004034921 -0.0028598602 -0.0039857165 -0.0031547078 -0.000562863 -0.0007230456
-0.0019270126 -0.0008471803 -0.0022770807 -0.0030341733 -0.0018638337 -0.0019117777 -0.00045600347 -0.0016565342
-0.000665942 -0.0003647058 1.93406e-40 -0.0007875336 -0.0036859596 -0.00092742045 -0.0036206471 -0.0006599183
-0.0023860915 -0.00034933945 -0.0021433434 -0.0010617949 -0.0043326397 -0.0014090536 -0.00059834716 -0.0017745898
-0.00072395016 -0.0008160679 -0.0013024017 -0.00013601192 -7.2198876e-05 7.042606e-05 0.00032189954 -0.0006037165
-0.00033324276 -0.0019461536 0.00021068218 0.0004527937 0.0003273715 -0.0025031057 0.00011501323 -0.004438959
-6e-45 6e-45 -0.0020691277 -0.002442829 -0.0024635452 -0.00039427791 0.00013370714 -0.0029394384
-0.00038458424 -0.00030368788 -0.0014717532 -0.0007830707 -0.0008894603 -0.0024906204 -0.00075519405 -0.0016439662
-0.0011587498 -0.00018562318 -0.00167071 -0.002361452 -0.00016510386 -0.00094307616 1.7279468e-34 -0.0017243405
-0.00011370479 -0.00172649 -0.0008904048 -0.00047551532 -0.0014144566 -0.0019286327 6e-45 -0.00033052464
-0.0021209249 -0.0023184968 -0.00084485504 -0.001166476 -0.0013451284 0.00034192487 -0.004078334 0.0017871123
-0.0020758829 -0.002456375 -0.0015317473 -0.0034973505 0.0009355593 -0.0053501194 -0.005764084 -0.0057907915
-0.0007654898 -0.0030338531 -0.0012680767 -0.0019045844 -0.0044273455 -0.00037814418 -0.0030365295 7.7677214e-05
-0.00062925054 0.0012167286 -0.0028836199 0.00033000176 -0.0003532598 -0.000117120166 8.2045626e-05 0.0015435837
-0.004554279 -0.0029107016 -0.0009050618 -0.0020261882 -0.00445861 -0.0009155949 4.88798e-40 -0.0058232825
-0.0015310834 0.002012433 0.0009273872 -0.00014359759 -0.002077246 -0.005241794 0.0015177022 -0.0039544627
-0.0021546944 -0.00067979953 0.00013243733 -0.003209979 -0.000727481 0.0017182494 -0.0009952198 -0.003365327

exp_avg_sq f4 [10, 100]
00000000: 1cb7 c238 d8f7 9838 2f11 2037 2af5 e138
00000010: 9e72 aa37 eda0 3236 2d01 ee39 a4e3 fb38
00000020: f971 0e38 2d24 8638 71db 6939 36a3 c639
00000030: 66ef cc38 549d d138 7b9a c139 66a4 e037
00000040: 8d47 4139 fdbf 5339 5331 0738 9c52 f438
00000050: dbdd 3838 0cca 6138 14f0 a238 712d 1b38
00000060: d3e6 aa37 5371 7338 dd26 fc39 344f a038
00000070: 7471 0b39 51f9 d737 d65d 9138 178a 1739
00000080: 9f7a 3738 2200 dd37 3581 d739 1be6 5139
00000090: 7c43 0239 ba04 2739 b9b5 802d ded7 c139
000000a0: 1d25 1539 5606 fc37 7084 3238 a677 2f39
000000b0: 8159 8a38 5113 b337 c050 e137 ca56 8939
000000c0: 4f27 de39 9e30 2939 c4db b838 fa9c 9239
000000d0: 6ca4 9237 78b8 3b38 4b9a 9a38 3481 1739
000000e0: 7800 6338 605d 6539 cc8d 1d39 6a02 de38
000000f0: 1a9b eb38 fe2a 0e38 bb6e 3f39 9686 5c38
00000100: 981e 2a39 c113 6c37 baa9 8539 c837 f238
00000110: e6cf 2932 0054 c732 0b16 8938 7a8b 9039
00000120: b676 2337 562d a839 f01c f837 6bab 8538
00000130: 4c59 7b39 1dcc 2f3a 4f9c 0e38 9c56 aa39
00000140: 7033 1b3a dbd5 1339 a9ff 6139 9878 4437
00000150: 26fb 3338 02c7 f337 4755 6e38 10c7 3739
00000160: c2b6 a239 bc7c be39 a221 6b32 d3f0 8f38
00000170: 7028 d738 5cdb 3038 31e1 5d39 dbe9 8338
00000180: e0d4 cb39 cb60 a238 ecb7 8c32 d541 e038
00000190: e96e f138 e86c 6738 5f96 e336 b4a1 c838
000001a0: f992 d738 1690 9736 cdb7 ef38 6289 1a38
000001b0: d887 6d38 36cb 0b39 ed8e c938 f426 c938
000001c0: 0ff8 7c39 37d1 c737 9359 9a38 2602 0d38
000001d0: 7be8 db38 7113 a237 72c1 2137 3b1c 9f37
000001e0: ca4d b638 1c24 9539 3539 2c38 153f 5b39
000001f0: f214 4939 64a8 9138 3043 3f38 3a7b bc38
00000200: f9e2 1239 179e 4e38 f754 b538 9bab 8a39
00000210: 759c 3739 4c34 3339 fcce ad38 c51a 5738
00000220: e2c9 9837 cfed 9738 c91a aa2e 0cce ed38
00000230: 9b02 ea39 70ca 1238 87e0 6539 af20 c038
00000240: 796e f638 abcd d738 0621 e338 c7b8 bb38
00000250: 40f2 cf39 d4cf 8637 226b ad37 342a e938
00000260: d616 9f38 7bd9 1638 1e05 fa38 84fd 0638
00000270: 073c 4938 9615 0338 3cb3 b238 9a36 fa38
00000280: f123 4a37 eb62 8538 8698 0e38 3a3c 4e37
00000290: 07ad 3237 4599 1539 90e6 d837 91ac ee39
000002a0: 7c54 0033 2a08 9a31 798b c338 7f0d 9639
000002b0: 0d04 0239 a328 3438 a514 2438 5194 6a39
000002c0: 107a 0c37 c110 c638 c569 9f38 99b8 a138
000002d0: 0bd0 c438 edcd 9439 248b 9338 b2db ba38
000002e0: 46b0 7238 c616 9c38 facd 5139 8b79 ad38
000002f0: 0f40 6838 8237 c938 d241 4f32 0eec 6c38
00000300: 5390 1d38 afa2 1d39 4bc6 f737 a9f5 2338
00000310: 5e18 b438 a148 f538 cf35 2730 2e7e cc38
00000320: 3ed0 5c39 996b 8339 4b80 0837 f153 d938
00000330: cda1 5b39 90e6 1137 cb04 2d3a b4a7 fd38
00000340: 1bb4 9f38 cdd0 4239 fb4c 023a bfcc f439
00000350: b631 a638 b774 9d39 de88 e739 08c0 6339
00000360: 266b f539 ba1a d438 6df8 e738 b75e 0d39
00000370: 4f0b 2939 7bfd f238 9d35 9739 3b7a 8c39
00000380: 1f3a 2838 a0f8 3c38 76c4 b339 f67b 5c39
00000390: eea0 be39 1012 1d39 f858 3f39 695b bb39
000003a0: c215 d739 c742 2039 3e4d de39 42e6 2d39
000003b0: 68fd 0f39 4744 a639 2bc4 af2c bce8 1b3a
000003c0: 743a 1e3a 95c3 3138 a79b 2239 4f46 9f39
000003d0: 119e f038 d3fb b639 8154 b538 fc88 0d3a
000003e0: bafd 443a c496 c438 fa87 9e38 0ca8 d139
000003f0: 2b36 cb38 94f6 7438 0c72 2039 d40f 9439
9.284748e-05 7.294089e-05 9.540744e-06 0.000107745014 2.0318952e-05 2.6617738e-06 0.00045395773 0.00012011014
3.3961584e-05 6.396356e-05 0.0002230236 0.00037887105 9.7720695e-05 9.995201e-05 0.00036926926 2.6779435e-05
0.00018432569 0.0002019405 3.2232445e-05 0.00011650214 4.4075638e-05 5.383235e-05 7.76948e-05 3.69972e-05
2.0373065e-05 5.8041256e-05 0.0004809414 7.644147e-05 0.00013298338 2.5746094e-05 6.931617e-05 0.00014451925
4.37448e-05 2.6345315e-05 0.00041104262 0.00020017514 0.00012422906 0.00015928122 1.4632616e-11 0.00036972662
0.00014223573 3.0043691e-05 4.256185e-05 0.00016733873 6.597024e-05 2.1347458e-05 2.6859692e-05 0.0002619534
0.00042372427 0.00016135207 8.814738e-05 0.00027964247 1.7481121e-05 4.4756074e-05 7.3720315e-05 0.00014448614
5.4121454e-05 0.00021873927 0.0001502551 0.000105862346 0.00011234563 3.3895478e-05 0.0001825643 5.257743e-05
0.0001622386 1.40712955e-05 0.00025494193 0.00011549849 9.884365e-09 2.3204848e-08 6.536775e-05 0.00027569738
9.743197e-06 0.00032077235 2.9577379e-05 6.373863e-05 0.00023970491 0.00067061355 3.4001012e-05 0.00032489456
0.00059204455 0.0001409868 0.00021552913 1.1710588e-05 4.2910826e-05 2.9060528e-05 5.6823043e-05 0.00017526397
0.00031035213 0.00036332558 1.36864475e-08 6.8636284e-05 0.00010259531 4.2165964e-05 0.00021160093 6.290126e-05
0.00038877781 7.742791e-05 1.6381783e-08 0.000106934145 0.00011512434 5.517612e-05 6.7826327e-06 9.566863e-05
0.00010279375 4.5169245e-06 0.00011430644 3.684441e-05 5.6631718e-05 0.00013331775 9.611049e-05 9.5916825e-05
0.00024125002 2.3820072e-05 7.359977e-05 3.361902e-05 0.000104860366 1.9320958e-05 9.641388e-06 1.8967423e-05
8.6929256e-05 0.00028446398 4.1061274e-05 0.00020908967 0.00019176656 6.945504e-05 4.5600522e-05 8.987491e-05
0.00014008199 4.926146e-05 8.6465785e-05 0.00026449267 0.00017510525 0.00017090252 8.287837e-05 5.1284926e-05
1.8213821e-05 7.2445364e-05 7.735463e-11 0.0001133942 0.000446339 3.4997647e-05 0.00021922785 9.161361e-05
0.00011750771 0.000102903075 0.000108303546 8.951272e-05 0.00039662607 1.6070822e-05 2.0673095e-05 0.00011118167
7.585964e-05 3.596533e-05 0.00011921882 3.2184194e-05 4.797804e-05 3.1252937e-05 8.5210864e-05 0.00011931099
1.20485065e-05 6.360359e-05 3.3997487e-05 1.2292579e-05 1.0649913e-05 0.00014266845 2.585657e-05 0.0004552347
2.987916e-08 4.482918e-09 9.3243034e-05 0.00028620285 0.00012399275 4.295319e-05 3.9119874e-05 0.00022371231
8.37307e-06 9.4444964e-05 7.601412e-05 7.711462e-05 9.384759e-05 0.00028382186 7.035423e-05 8.9100926e-05
5.7861464e-05 7.4429016e-05 0.00020008525 8.271922e-05 5.537277e-05 9.594766e-05 1.2063952e-08 5.6486628e-05
3.756613e-05 0.00015033291 2.9537032e-05 3.9091017e-05 8.5876076e-05 0.000116960386 6.083071e-10 9.750981e-05
0.00021058411 0.00025066434 8.136102e-06 0.00010363002 0.00020945743 8.6963555e-06 0.00066001405 0.00012095217
7.615258e-05 0.00018579066 0.00049705774 0.00046691854 7.924756e-05 0.00030032333 0.00044161727 0.00021719944
0.00046809873 0.00010113926 0.00011061211 0.00013482092 0.00016121309 0.00011586674 0.0002884091 0.0002679395
4.010845e-05 4.5054243e-05 0.00034287915 0.00021027014 0.00036359526 0.00014979416 0.00018248323 0.00035735525
0.00041024206 0.00015283666 0.0004240069 0.00016584343 0.00013731944 0.00031712858 4.995578e-12 0.0005947461
0.0006035932 4.238224e-05 0.00015507509 0.00030379227 0.00011473534 0.0003490137 8.646493e-05 0.00053991354
0.0007514615 9.3740906e-05 7.559355e-05 0.0003998879 9.689884e-05 5.8403777e-05 0.00015301275 0.00028240553

exp_avg f4 [10]
00000000: 5ffc f8ba a0ef ceba f84c e3ba d2b5 c338
00000010: ede6 143b d946 973b 4677 16ba e096 6d3a
00000020: b56d d8ba e636 ecb9
-0.0018996111 -0.0015787967 -0.0017341664 9.332191e-05 0.002272065 0.0046166 -0.0005739819 0.00090633146
-0.0016512187 -0.0004505433

exp_avg_sq f4 [10]
00000000: cdcc 6138 0fe2 8b38 95be d338 34f0 0239
00000010: 46ec c838 836b fc38 8ef9 8a38 11dd a438
00000020: 67b8 1839 2acf fd38
5.3834916e-05 6.670143e-05 0.00010096763 0.00012487249 9.5807525e-05 0.00012036322 6.626836e-05 7.861306e-05
0.00014564545 0.000121025674

layer1.weight f4 [100, 784]
00000000: c0f1 a23b eef8 42bb 2582 57bc 93c9 a53b
00000010: 8e79 db3c 77a9 cdbb bcc2 ab3c 053d 79bc
00000020: f769 4bbc d1eb fc3c 85d0 a8bc 259b 283b
00000030: f5eb 373c ea5e 283b f54e a53b 7194 a6bb
00000040: f332 a5bc 01ba 6abc ca4b 2a3c a57a fbbc
00000050: 259a daba 6e06 4dbc c048 1d3c d334 97bc
00000060: 73d6 7fbc 3c4c 583c e898 023d d17b abbc
00000070: cbb4 083d 6e02 173b ec72 d33c 6c87 f53c
00000080: 759c 343d 92da 933c 12a6 453d 4998 a53d
00000090: 46e1 a03d e536 cd3d 75f3 c53d 265f 883d
000000a0: 7af7 843d 3cae 9b3d 99bb de3d 202c 233e
000000b0: 95bc d63d 8fc6 f73d ad90 6e3d 9105 483d
000000c0: 0854 123e ef70 be3d 6143 ca3d 61c4 363d
000000d0: 23f8 c03c e75a 9bbc 85de 673c c193 dbbc
000000e0: 1586 e63c 1885 fe3c ecc4 183d 995c 303c
000000f0: 59aa 153d f8b9 d3b8 d180 283d 7951 ab3d
00000100: 5630 313e 92de 1a3e 22ee fd3d c04c 193e
00000110: 1411 163e f3cd 333e 08ea 2c3e ed6d 7b3e
00000120: 3d38 543e a8f8 153e 93bb a43d 8090 093e
00000130: 697b e23d 3032 ce3d dc65 963d ff71 0e3e
00000140: 5f3e 383d efc7 113d 33ad fc3c 3354 7ebc
00000150: fc9c eb3c cc11 f43c 2a3a c53c 69a0 853d
00000160: cd10 913d 030e 38bd da73 293c 14f6 9c3d
00000170: 98bc 653d fa11 d53d 3f10 9f3d 7dc1 a93d
00000180: d17c 073d 3c31 953d 6dd5 433d ab42 db3d
00000190: e15b 4b3d 1ad3 bb3c 351e 193d 1e82 433d
000001a0: a22e 7b3d 5398 813d 22f1 ca3d 7778 223d
000001b0: eaf9 823d f8ef 47bc 4ac4 5f3a d887 07bd
000001c0: 1c69 b3bb e6b4 8cbb 0f16 d83c 861f 05bd
000001d0: 89d5 30bd 0eee e3bc ef10 cb3c 1895 20bb
000001e0: fd69 9bbc da58 723b c04f 1a3d 8504 a73b
000001f0: cc44 693d ca42 7f3c 4629 473d 422b a13c
00000200: a94b 0b3d 6426 9f3d 7ddb 783d 811f 403d
00000210: 6cfe e6ba 95fe 143d b0c9 153d 47af b03c
00000220: ce73 1ebd 11f0 36bd bf20 5dbb 5060 173c
00000230: b7cd 84ba 970b 933c cfcd aa3c 99e6 b0ba
00000240: a0e4 a8bd ea35 c0bd 19c4 54bd 51dc 52bd
00000250: c3cd b0bd 94a2 83bd bbd0 3abd d7ac 68bd
00000260: 6872 103c 9d48 443c 1858 bc3b 0f88 413d
00000270: b248 133b ee89 7e3d fea7 813d 85ad 0f3d
00000280: 6eef 1a3c 1753 19bd 9a71 d8bb ae51 3d3d
00000290: 1ef0 caba b44b 1cbc 37ac 873d acca 7e3d
000002a0: 00c7 a6bc 00a5 7c3c f5ad eebb 6788 95bd
000002b0: abbc 0abd c957 7bbd f4a0 4dbd aed0 f7bd
000002c0: 23c3 21be 38a5 02be 8a46 cebd 9bd4 9fbd
000002d0: 2dba 1cbd 1b03 223c 52b4 6b3b ec1d bbbc
000002e0: aa30 86bc 68da 953c dde7 003d 7b44 aa3c
000002f0: 3914 89bd ce24 52bd ffa5 54bd b5f3 94bc
00000300: 8ea2 383d 2e8b 293d 5bef c53d 3191 c23c
00000310: ee1c 20bc 0c5d a43b dee7 bf3b e937 e6bd
00000320: 3737 d1bd d0d8 d2bd 4d3e b9bd 0988 f8bd
00000330: 9e51 dcbd 603d 2fbe 91c9 debd c4af 8bbd
00000340: d71b dabc fc9c c1bb 3779 8f3d 477a fbbc
00000350: 5a42 0d3d f947 a73c 521a 1dbd 9bed 71bd
00000360: 3dd7 bfbd 1926 44bd 41e9 85bd 9785 4fbd
00000370: 5e45 d43b c1ea 2d3d 48f1 0f3d 5e24 953c
00000380: ddf8 7b3d 7906 d23c 666d d23c f0a3 b5bd
00000390: eafa 04be d4b8 c7bd 94b9 15be 9572 08be
000003a0: e038 d6bd 4132 c9bd 8d01 94bd 820f 2cbd
000003b0: 2c2c adbb 20dd 953d 16b1 453d e552 073d
000003c0: af08 893c 6608 cf3c f4f6 fcbc 2d43 abbd
000003d0: c3d3 a3bd 28a3 babd e59d eebd 2dce cebd
000003e0: 4b21 cebc 833e 0b3c 0094 a33c 6bb4 8a3b
000003f0: 9794 58bc bd62 04bd 15e0 dabc be0f c5bc
0.0049726665 -0.0029750424 -0.0131535875 0.00505943 0.02679136 -0.0062763053 0.02096688 -0.015212302
-0.012415401 0.030874165 -0.020607242 0.002572724 0.01122569 0.0025691339 0.005044813 -0.0050836136
-0.020165896 -0.014326573 0.010394046 -0.03069813 -0.0016678019 -0.01251374 0.0095998645 -0.018457806
-0.0156150935 0.013201769 0.031884104 -0.020933064 0.033375543 0.002304222 0.025811635 0.0299718
0.04409452 0.018048558 0.04825408 0.08085687 0.078554675 0.10020236 0.09665576 0.06658773
0.06492515 0.07601592 0.10875625 0.15934801 0.10485188 0.12098419 0.058243442 0.048833434
0.14289868 0.09298884 0.09876133 0.044620875 0.02355582 -0.018964244 0.014152174 -0.026803853
0.028140107 0.031069323 0.037297174 0.0107642645 0.03653941 -0.000100959034 0.041138474 0.08365149
0.17303595 0.15123966 0.12398936 0.14970684 0.14654952 0.17559032 0.16886151 0.24553652
0.20724578 0.14645636 0.080435894 0.13434029 0.11058695 0.10068166 0.07343647 0.13910674
0.044981357 0.035591062 0.030844307 -0.015523004 0.02876138 0.029793642 0.024075586 0.065247364
0.070832826 -0.044935238 0.010342563 0.07664123 0.05608806 0.104038194 0.077667706 0.08288858
0.03307802 0.07284781 0.04781096 0.10706075 0.04964817 0.02292781 0.037382323 0.04773151
0.06132377 0.06327882 0.09909274 0.039665665 0.063953236 -0.012203209 0.0008536024 -0.033088535
-0.0054751765 -0.0042940257 0.026377706 -0.032500766 -0.043172393 -0.027823474 0.024788348 -0.002450293
-0.018971438 0.003697923 0.03767371 0.0050969743 0.056950375 0.015579889 0.048623346 0.019673947
0.034007702 0.07770994 0.060756195 0.046905044 -0.0017623431 0.0363756 0.036569297 0.021567954
-0.03868466 -0.04466254 -0.0033741442 0.009239271 -0.0010132109 0.017949862 0.02085009 -0.0013496458
-0.08246732 -0.09385283 -0.051944826 -0.05147964 -0.08632996 -0.06427494 -0.045609217 -0.056805458
0.008816339 0.011980203 0.0057478063 0.047248896 0.002247375 0.06214326 0.0633087 0.03507759
0.009456499 -0.037432756 -0.0066053392 0.046220474 -0.0015482937 -0.009539533 0.06624644 0.062205
-0.020358562 0.015420198 -0.007283921 -0.07301407 -0.033871334 -0.061363015 -0.050202325 -0.12100349
-0.15797095 -0.12758338 -0.10072048 -0.07804223 -0.03826349 0.009888436 0.0035965634 -0.022841416
-0.016380627 0.01829262 0.031471122 0.020784607 -0.0669331 -0.05130463 -0.05191612 -0.018182615
0.0450769 0.041392498 0.09664794 0.023750873 -0.009772522 0.005015975 0.005856498 -0.11241133
-0.102156095 -0.1029526 -0.09045086 -0.12135322 -0.10757755 -0.17113256 -0.108782895 -0.06820634
-0.026624603 -0.0059086066 0.07005542 -0.030697955 0.034487106 0.020420061 -0.03835518 -0.05906449
-0.09367225 -0.047887895 -0.0653863 -0.05066451 0.006477996 0.042460207 0.035142213 0.018205818
0.06151663 0.025637852 0.02568693 -0.08869159 -0.12986341 -0.0975205 -0.14621574 -0.1332496
-0.10460067 -0.09824038 -0.07226858 -0.042006977 -0.0052848067 0.07317567 0.048264585 0.03303804
0.016727773 0.02527256 -0.030879475 -0.08362422 -0.07999375 -0.09113151 -0.1165121 -0.10097919
-0.02516236 0.008498791 0.019968033 0.0042329333 -0.01321902 -0.032320727 -0.026718179 -0.024055358

layer1.bias f4 [100]
00000000: a291 133e 7162 743d 0c5a 003e c771 b8bd
00000010: 190a 603d 2da3 323d 06ce 2bbe 2a1a d4bd
00000020: b95f 3b3d fa7f 043e 3f03 c2bd 5c30 43bd
00000030: 902f 313e 610d c13d 4b86 3abd f22e 613d
00000040: 440b 86bd d14e 093e da8c 9a3d 2444 f63d
00000050: 9ed9 653d 5813 0f3e c0f6 f1bc 67d9 1abd
00000060: 5a00 113e 9ef5 103e 7527 edbc d863 643c
00000070: 33d1 94bd 898b 383e 3e71 bd3b 1561 b33d
00000080: d06a cc3d cb6b b73d 27f1 5f3c c13a 703d
00000090: f10e ff3d f165 9c3c bd12 84bc e7e3 acbc
000000a0: a146 3e3d 37f1 623d 41a8 3d3c f1a2 2a3c
000000b0: e712 003d 05f5 19bd 7561 4f3d 39c6 b8bd
000000c0: 54d4 deba a86d f43d 22dd 193e 1786 36bd
000000d0: 2773 b63d e923 3e3c 108e f93d 73f9 c23c
000000e0: 67c4 9e3d 66d9 b23d 9317 85bc 0914 49bd
000000f0: 0887 25bc cd87 b83d 7e23 cdbd 51f0 013e
00000100: 954d 673c fb2f f0bb 0031 ab3d d1da 52bd
00000110: 1ccb c2bc 43c7 62bc 03b2 cb3c 108f 533d
00000120: 3035 c43d aac8 8abd 9a8e e33c add2 25bd
00000130: 31dc de3d 5b05 843b 7f2e 643d 89f2 78bc
00000140: a95b e1bc a54d d8bb 54b8 783d 04ba 8b3d
00000150: 113c 453e 728f 9e3d 1356 cbbd d81d 4abc
00000160: daee 4dbc 6f9d 59bd 7c68 a73c ffec 52bd
00000170: cd70 e63d 339c 71bc bc67 ed3d 868e cc3d
00000180: 22a8 b2bc 4634 0abd 2820 d9bc 27e8 3ebd
0.14411023 0.059664194 0.1253435 -0.09006076 0.05469713 0.043612648 -0.1677781 -0.10356553
0.045745585 0.12939444 -0.094732754 -0.04765354 0.173033 0.0942638 -0.045538228 0.05497641
-0.065451175 0.13408972 0.075463966 0.120247155 0.05611574 0.13972223 -0.029536605 -0.037804987
0.1416029 0.14156196 -0.028949479 0.01393982 -0.07266464 0.18021978 0.005781322 0.08758751
0.0998131 0.08956107 0.013668335 0.058649782 0.12454022 0.019091578 -0.016122216 -0.021104766
0.046454076 0.05540582 0.011575759 0.010414825 0.031268027 -0.037587184 0.05063005 -0.09022183
-0.0017000535 0.11934978 0.15025762 -0.04456147 0.08908682 0.011605241 0.121852994 0.023800587
0.077523045 0.08732872 -0.016246593 -0.049091373 -0.010102995 0.09010277 -0.10016535 0.1268933
0.014117618 -0.0073299385 0.083589554 -0.05147821 -0.02377849 -0.013841453 0.024865156 0.051650107
0.09580457 -0.06776555 0.027777959 -0.04048412 0.10881842 0.0040289587 0.055708405 -0.015194544
-0.027509527 -0.006601053 0.060722664 0.06822589 0.19261195 0.07742204 -0.09928527 -0.012336217
-0.012569154 -0.053128656 0.020435564 -0.05149555 0.11251984 -0.014746713 0.115920514 0.09988122
-0.021808688 -0.033741258 -0.026504591 -0.046608116

layer2.weight f4 [10, 100]
00000000: 1dac b93c 522d c9bd 4942 60be 7e1a 3f3e
00000010: 4a54 653a 3d5b 46bd 472b eb3d 4654 833b
00000020: 218d 07be 7900 27be 1c65 1cbe 736b 0d3e
00000030: 1fb7 b63d 0d4c 803c 6811 203d eba1 c7bd
00000040: 4998 9f3d 69a9 243e 56ed aebd 3475 023e
00000050: 3125 11be 4aff 28be 5e8c 663d 88ee 133d
00000060: 2931 5dbe 205f 323d 1e9a 323e c3c9 33be
00000070: e988 723d 8a83 7ebe 12d2 f9bd 0f90 60be
00000080: c285 7cbe c049 c0be 6157 213d ee12 0f3e
00000090: 7517 c83d 7e62 f43c 150a 9d3d cd0a 2f3e
000000a0: 85bd 58be 49d9 ab3d b2ff 423e 3854 1ebe
000000b0: 46f6 40bb 7679 86be ed4b f3bc 8c29 063e
000000c0: fffc c03d c304 163e 4c8e 35ba c384 003e
000000d0: 3580 4fbe e688 39be 9640 59be fef4 5d3e
000000e0: 5d26 e0bd 3a63 0a3e f54e a6bd a5b4 1ebe
000000f0: eef0 893d a3da 37be 25b1 e03d f431 53bd
00000100: 8d3f 803d d2a5 17be 89af ed3d cec6 53be
00000110: c08a 68bd e002 25bd a252 77bc 454d 0dbe
00000120: dc97 18be 7d78 6e3d 428f 3ebe 30c1 c9bc
00000130: 47a2 403e d98d 253e 42e7 0abe 063b b53d
00000140: 4cfc 9a3d c987 19be 6ca9 a43d fe32 1cbe
00000150: ed2a 01be ebc6 76be 0785 fcbd cdd5 3e3d
00000160: e56a 8c3d 6f29 dc3d e807 a73d a17c 31bd
00000170: ad19 e83d 5ac8 70be 8d1c 143e 4c3f 4ebe
00000180: 2499 733d a182 0bbd 92f8 24bd 5f11 5abe
00000190: 0631 503e 5305 c4bd 2904 2e3e 1e7b 423e
000001a0: 382d 7b3e ce31 1b3e 286e 2fbe 09e6 60be
000001b0: 1b41 033e b498 ee3d 7cc4 68be 95ed d6bd
000001c0: 19d5 84bd 8b8a 7cbe 8551 7cbe a60c 33be
000001d0: 508c 673d 51d7 af3d 097e 8dbe 7811 34be
000001e0: 1eed 353e 9f25 193e cf4b 81be a327 f03d
000001f0: bc12 6c3e 8401 d43d 5304 6fbe 94eb 21bd
00000200: 44ec de3d e067 1d3e df88 a93a 4c1d a13d
00000210: 67f5 f63d 3fd0 5a3e 5f38 47be 5fe8 473d
00000220: 5fe0 61be f9a8 d3bc be45 88bd 5c5c 80bd
00000230: b5a6 233e a199 e2bd 9ebe 2b3e 9b80 b0bd
00000240: 699c 293e f560 39bd e316 243e 5293 9cbd
00000250: 3d3f 083e 3c07 853c 8633 02be 1f93 a73d
00000260: 0ea0 e23d 685b 7dbd 9998 0d3b 7e09 c0bd
00000270: 41f7 d3bc 42cd 64ba de24 19be 2cef 05be
00000280: b44c c23d 236e 183e 675e 25be 4288 21be
00000290: 3363 cd3d f5c1 1d3e 312b 59be 58a1 193e
000002a0: 1c55 b0bd 5f8d 8c3d e37c c03d bc5d a4bd
000002b0: 9b09 2e3e 6f42 4fbe 24cb c2bd 3fda bd3d
000002c0: d0af 4bbe a0a2 66be eae8 393e 428f 30be
000002d0: 472d 46be 75cc 72bb 30d8 6c3c 216c 263e
000002e0: dee5 8e3d 7468 1e3d 18f7 853d 8343 033c
000002f0: da04 61be 2b18 d7bd 1b3e 3e3d 860d e8bd
00000300: e631 b0bd 5fab 893d 2a60 17be ec04 80bc
00000310: 9b1d fabd ad82 da3d 3bab 7f3d 71fd 52bd
00000320: d409 0f3e 52c5 7e3d fe3c ccbd ccd0 d2bb
00000330: 27a6 5b3e 9bac 80be 77e3 723d 7cca 49be
00000340: d6f6 a1bd 687f b73d 15c7 0abd a5da d43d
00000350: 4fea 03bf 2ec4 743e bc6d 11be 16bf 033e
00000360: 4fd6 2b3e 45c7 91bd bbbd c23d 2725 1ebd
00000370: bf7c 9abc 6b70 09bf c265 013e 176a 543d
00000380: d3b5 ffbd bfd5 79be 3778 1fbe 1ed3 32be
00000390: 16d5 993d e844 013e c3b1 9a3c 9ed3 b4bd
000003a0: c385 3e3e 1a9e 8bbd 9036 c1bd 4323 2d3c
000003b0: 6dd4 113e a6a3 1c3c 4de2 993d 0b76 003e
000003c0: 039d 453d c387 43be 74b9 1dbd 12cc 0bbe
000003d0: 9fde 2abd 3555 5a3e 8c4e afbd 8e97 0e3e
000003e0: dec7 be3d 310a 8dbd 7ec5 a1bd b5f0 233d
000003f0: 597d cfbb d846 6abe 1e99 52be 75dd 5b3e
0.022665078 -0.09823097 -0.21900286 0.1866245 0.0008748217 -0.048426855 0.11482864 0.004007849
-0.1323743 -0.16308774 -0.15272945 0.1381052 0.08921646 0.015661264 0.0390791 -0.0974768
0.07792718 0.1608025 -0.08541362 0.12740022 -0.14174344 -0.16503635 0.05628621 0.036116153
-0.21600784 0.04354775 0.17441604 -0.17557435 0.0592126 -0.24854866 -0.12198271 -0.21929954
-0.246604 -0.37556267 0.03938997 0.13972065 0.09770099 0.029832121 0.076679386 0.17093964
-0.21166046 0.08391053 0.19042853 -0.15461814 -0.0029443665 -0.26264542 -0.02969929 0.13101786
0.09423255 0.14650254 -0.0006925806 0.12550645 -0.20263751 -0.18118629 -0.21216044 0.21675488
-0.10944817 0.13514414 -0.081205286 -0.15498598 0.06735407 -0.17954497 0.10971288 -0.05156131
0.06262121 -0.14809349 0.11605746 -0.20681307 -0.056772947 -0.040285945 -0.015095385 -0.13799007
-0.1490168 0.058220375 -0.18609336 -0.024628252 0.18811904 0.16167392 -0.1356478 0.088491485
0.07567653 -0.14993204 0.08040127 -0.15253827 -0.12614031 -0.24099319 -0.123300605 0.046590615
0.06856326 0.1075009 0.08155805 -0.043331746 0.11333022 -0.23513928 0.14464016 -0.20141333
0.05947222 -0.034060124 -0.040276118 -0.21295689 0.20331201 -0.09571328 0.16993774 0.18992278
0.24528968 0.15155718 -0.17131865 -0.21962751 0.12817805 0.116502196 -0.22731203 -0.10494534
-0.06485958 -0.24662225 -0.24640472 -0.17485294 0.056530297 0.0858599 -0.2763522 -0.17584789
0.17766234 0.14955758 -0.2525315 0.1172631 0.23054022 0.103518516 -0.23341493 -0.039531305
0.10884908 0.15371656 0.0012934468 0.07866916 0.120585255 0.21368502 -0.19455098 0.04880559
-0.22058247 -0.025837408 -0.06653927 -0.06267616 0.15981562 -0.11064459 0.16771933 -0.086182795
0.16563572 -0.04525848 0.16024356 -0.076452866 0.13305373 0.016238801 -0.12714967 0.08182358
0.11065684 -0.06185475 0.0021605848 -0.093768105 -0.025874736 -0.00087280956 -0.1495547 -0.13079518
0.09487286 0.14885764 -0.16149293 -0.15774634 0.100286864 0.1540602 -0.21207882 0.15002954
-0.08609983 0.06862902 0.0939882 -0.08025691 0.16995852 -0.20240186 -0.09511402 0.09270143
-0.19891286 -0.22522974 0.18155256 -0.17242149 -0.1935321 -0.0037048135 0.01445584 0.16252185
0.069774374 0.038673833 0.0654127 0.0080117015 -0.21974507 -0.105026565 0.046445947 -0.113307044
-0.08603267 0.067221396 -0.14782777 -0.015627347 -0.12212678 0.10669456 0.062419157 -0.05151123
0.13968593 0.062199898 -0.09972571 -0.006433582 0.21450101 -0.25131688 0.05929896 -0.19706148
-0.07908408 0.08959848 -0.033881266 0.10393266 -0.515294 0.23902962 -0.14202017 0.12865862
0.16780971 -0.07118086 0.095088445 -0.03860965 -0.018858312 -0.5368716 0.12636474 0.051858988
-0.12485852 -0.24397944 -0.15573202 -0.17463347 0.07511346 0.12623942 0.018883592 -0.08829425
0.18605714 -0.06817265 -0.09434235 0.010567489 0.1424119 0.009560501 0.075138666 0.1254503
0.04824544 -0.19094758 -0.03850694 -0.13652065 -0.041716214 0.21321566 -0.085599035 0.13925001
0.093154654 -0.068867095 -0.07898997 0.040024478 -0.0063320813 -0.22878587 -0.20566222 0.21471198

layer2.bias f4 [10]
00000000: 685c a7bd c47b e63b e63e 47bd 7572 e13c
00000010: e78c 22bd 9510 483e fa93 7cba 26a9 1ebd
00000020: c200 57bd cb9e a6bd
-0.08171922 0.007033797 -0.04864397 0.027520398 -0.039685156 0.19537576 -0.00096350873 -0.03873553
-0.052490957 -0.08135756
