lightning_logs/version_9/checkpoints/epoch=1.ckpt (torch, 958291 bytes, 12 tensors)

exp_avg f4 [100, 784]
0.0 0.0 0.0 0.0 0.0 0.0 0.0 0.0
0.0 0.0 0.0 0.0 4.6638206e-17 1.0073853e-15 1.0073853e-15 4.1974384e-17
0.0 0.0 0.0 0.0 0.0 0.0 0.0 0.0
0.0 0.0 0.0 0.0 0.0 0.0 0.0 0.0
-5.0110648e-26 -1.4720016e-25 -1.4224508e-12 -1.351347e-09 1.6022977e-06 3.15419e-07 -7.70671e-08 -5.7053194e-07
-2.960827e-07 -2.3303683e-06 -2.6169419e-06 1.3952245e-05 1.9263935e-06 -9.0390495e-07 -2.5675078e-07 -5.295634e-08
-5.684733e-08 -1.11441e-11 -7.853269e-17 6.279012e-23 0.0 0.0 0.0 0.0
0.0 0.0 -2.4829632e-09 7.32744e-15 -1.1986877e-07 -2.1469038e-08 -6.9342795e-11 -1.2758763e-09
1.5880165e-06 1.0340158e-06 -1.2270875e-05 -2.5170111e-05 -4.9276955e-06 -1.3582367e-05 -6.534519e-06 9.885535e-06
1.917408e-05 2.8954231e-05 4.154493e-05 1.0425578e-05 -3.6569743e-06 -3.360024e-07 -1.8936177e-07 -4.5565955e-08
-1.0692853e-08 -6.085425e-10 0.0 0.0 0.0 0.0 -5.470278e-09 -2.7155295e-10
-3.9295102e-08 -3.4098036e-07 3.6616782e-07 3.7437567e-07 2.8002983e-06 9.784292e-06 1.4444344e-05 -3.164692e-05
4.3910914e-06 4.634492e-06 1.34956945e-05 0.00022499403 0.00027436545 0.00013935367 8.093004e-05 0.00010926323
3.1657833e-05 -1.6585625e-05 -3.533554e-05 -3.2719407e-05 -9.381659e-06 -1.4699852e-06 1.5111581e-10 0.0
0.0 -6e-45 9.6285325e-17 5.4731423e-08 -3.582778e-08 -5.1322644e-07 3.869665e-06 3.2047942e-06
1.0647013e-05 5.957272e-05 8.795421e-06 -2.8059829e-05 -5.9406684e-05 -1.5973777e-05 0.00017017133 0.00042271806
0.0003708732 0.00026897635 0.00012840866 9.294181e-05 2.5028849e-05 -9.377849e-05 -0.00014906091 -0.00012322864
-1.9170071e-05 -1.2626692e-05 6.027657e-11 6.102865e-11 0.0 0.0 5.4439203e-11 4.0819387e-08
-1.4700977e-07 5.2671276e-06 8.1225435e-06 6.013981e-06 6.0417588e-05 5.7273122e-05 3.508603e-05 8.6229855e-05
0.00015572089 0.00031509102 0.0002907495 0.00036683478 0.00035584084 0.0002224396 -5.1606483e-05 -9.523216e-05
-0.0001760313 -0.00041742442 -0.00025472962 -0.0002854674 -0.00016782548 -8.6343e-06 -1.200741e-06 1.146525e-08
0.0 4.0870957e-18 -1.2961789e-08 -4.3528494e-06 -2.55777e-05 -1.9275012e-05 -9.364889e-06 -7.4811287e-06
-1.9781028e-05 -0.0001534201 -3.0324436e-05 7.02614e-05 9.689953e-05 0.00041082734 0.0004771734 0.00043355388
0.00034704877 6.524862e-05 -7.424348e-05 -0.00012332661 -0.00024670092 -0.00042338241 -0.0001370572 -6.993709e-05
-0.0001832812 -0.00010956254 -1.6828219e-05 2.9696547e-09 -6.667586e-21 -6.747473e-12 -3.0912702e-07 -1.5793052e-05
-3.702547e-05 -5.8985992e-05 -6.7169996e-05 -9.9647914e-05 -0.00010131499 -0.0001553133 8.29327e-05 0.00011767621
0.00026681452 0.0003822935 0.00042020789 0.00029963677 0.00040982346 0.00032800715 0.00014109552 4.6825858e-06
3.7627892e-06 -0.00016585726 3.4881785e-05 9.569608e-05 0.000130058 3.682564e-05 3.091558e-05 -4.029879e-09
6.9861716e-17 1.3287371e-07 -3.5781668e-06 -1.7909642e-05 -9.8336815e-05 -0.00011528086 -9.782141e-05 -4.8386708e-05
-3.595374e-05 0.00013409536 0.00027036684 0.00035432176 0.000558017 0.00029542495 0.000158103 0.00037958947
0.0005050334 0.00058717607 0.00041664438 0.00038292547 0.00025307195 7.7381315e-05 0.00029434936 0.0003616362
0.00027858422 1.4649065e-05 -7.346652e-06 1.3580935e-10 -1.244194e-16 1.4006546e-08 -8.2276506e-07 -1.3690001e-05
00000000: 0000 0000 0000 0000 0000 0000 0000 0000
00000010: 0000 0000 0000 0000 0000 0000 0000 0000
00000020: 0000 0000 0000 0000 0000 0000 0000 0000
00000030: ad14 5724 f52d 9126 f52d 9126 9b92 4124
00000040: 0000 0000 0000 0000 0000 0000 0000 0000
00000050: 0000 0000 0000 0000 0000 0000 0000 0000
00000060: 0000 0000 0000 0000 0000 0000 0000 0000
00000070: 0000 0000 0000 0000 0000 0000 0000 0000
00000080: cb22 7895 9839 3696 3131 c8ab 4cba b9b0
00000090: 880e d735 db56 a934 1680 a5b3 a826 19b5
000000a0: 4cf5 9eb4 6c63 1cb6 b89e 2fb6 7014 6a37
000000b0: 3047 0136 e0a3 72b5 8fd7 89b4 1d72 63b3
000000c0: 4d28 74b3 910c 44ad 8515 b5a4 34d1 971a
000000d0: 0000 0000 0000 0000 0000 0000 0000 0000
000000e0: 0000 0000 0000 0000 c0a0 2ab1 daff 0328
000000f0: 47b5 00b4 ea6a b8b2 867c 98ae e85a afb0
00000100: d523 d535 83c8 8a35 02df 4db7 6724 d3b7
00000110: 9558 a5b6 d2df 63b7 1743 dbb6 0dda 2537
00000120: 06d8 a037 bde2 f237 8740 2e38 84e9 2e37
00000130: 576a 75b6 d163 b4b4 5e53 4bb4 4cb4 43b3
00000140: aab3 37b2 5f46 27b0 0000 0000 0000 0000
00000150: 0000 0000 0000 0000 13f5 bbb1 ae49 95af
00000160: 6cc5 28b3 fc0f b7b4 b995 c434 cdfd c834
00000170: c2ec 3b36 3727 2437 fc55 7237 9fbc 04b8
00000180: 3057 9336 fc81 9b36 916b 6237 60ec 6b39
00000190: b5d8 8f39 771f 1239 fcb8 a938 4024 e538
000001a0: 57c8 0438 5c21 8bb7 3f35 14b8 323c 09b8
000001b0: eb65 1db7 4f4c c5b5 5227 262f 0000 0000
000001c0: 0000 0000 0400 0080 d304 de24 d611 6b33
000001d0: 10e1 19b3 a7c4 09b5 2bd8 8136 f211 5736
000001e0: 93a0 3237 b9dd 7938 0c90 1337 0662 ebb7
000001f0: 712b 79b8 6dff 85b7 0570 3239 42a0 dd39
00000200: c271 c239 6505 8d39 70a5 0639 c1e9 c238
00000210: 0bf5 d137 f2aa c4b8 3c4d 1cb9 f036 01b9
00000220: 6acf a0b7 3bd7 53b7 b18c 842e 1334 862e
00000230: 0000 0000 0000 0000 186d 6f2e 6451 2f33
00000240: bdd9 1db4 48bc b036 0f46 0837 b4cb c936
00000250: e468 7d38 8c38 7038 5629 1338 4dd6 b438
00000260: 0249 2339 cd32 a539 bd6f 9839 bb53 c039
00000270: 2690 ba39 ad3e 6939 0a74 58b8 60b7 c7b8
00000280: 0b95 38b9 c2d9 dab9 3b8d 85b9 c9aa 95b9
00000290: 4ffa 2fb9 09dc 10b7 2629 a1b5 b4f8 4432
000002a0: 0000 0000 87c9 9622 8dae 5eb2 b10e 92b6
000002b0: b18f d6b7 c6b0 a1b7 e41d 1db7 6806 fbb6
000002c0: 6fef a5b7 65df 20b9 3b61 feb7 4d59 9338
000002d0: 8a36 cb38 5064 d739 212d fa39 9e4e e339
000002e0: 19f4 b539 16d6 8838 2ab3 9bb8 3c51 01b9
000002f0: a357 81b9 6df9 ddb9 03b7 0fb9 30ab 92b8
00000300: 2c2f 40b9 f1c4 e5b8 532a 8db7 b812 4c31
00000310: efe4 fb9d d567 edac 18f6 a5b4 527b 84b7
00000320: cc4b 1bb8 ba67 77b8 9edd 8cb8 11fa d0b8
00000330: 1279 d4b8 99db 22b9 27ec ad38 efc8 f638
00000340: 3de3 8b39 916e c839 594f dc39 9118 9d39
00000350: 93dd d639 60f8 ab39 0af3 1339 1b1f 9d36
00000360: 3a84 7c36 f8e9 2db9 084e 1238 71b0 c838
00000370: 2e60 0839 3b75 1a38 5aab 0138 3177 8ab1
00000380: 1417 a124 0cac 0e34 7020 70b6 aa3c 96b7
00000390: 2d3a ceb8 f1c2 f1b8 7825 cdb8 d5f2 4ab8
000003a0: 09cd 16b8 f39b 0c39 06c0 8d39 43c4 b939
000003b0: e347 123a 44e3 9a39 73c8 2539 a303 c739
000003c0: 3864 043a b8ec 193a 1071 da39 63c3 c839
000003d0: beae 8439 c747 a238 e752 9a39 fd99 bd39
000003e0: f10e 9239 41c5 7537 4383 f6b6 ef52 152f
000003f0: 2072 0fa5 71a1 7032 fcdb 5cb5 1bae 65b7

exp_avg_sq f4 [100, 784]
0.0 0.0 0.0 0.0 0.0 0.0 0.0 0.0
0.0 0.0 0.0 0.0 5.218278e-13 2.5291438e-12 2.7475179e-14 4.7699995e-17
0.0 0.0 0.0 0.0 0.0 0.0 0.0 0.0
0.0 0.0 0.0 0.0 0.0 0.0 0.0 0.0
3.429817e-17 1.969662e-15 6.456255e-12 8.4565105e-11 9.9706216e-11 1.124302e-10 6.907203e-11 4.102221e-10
1.4317818e-09 3.0585354e-10 5.175602e-10 1.5051869e-09 3.5552872e-09 8.1258716e-10 4.2863515e-11 7.4009895e-11
1.1335522e-10 1.0962106e-11 2.4854767e-12 4.956091e-13 0.0 0.0 0.0 0.0
0.0 0.0 5.0149847e-18 6.826253e-12 2.1512197e-12 1.4198229e-12 1.0103843e-10 2.4134064e-10
7.0699224e-10 3.6904066e-09 4.366907e-09 5.0617683e-09 8.305732e-09 3.2715615e-08 2.0166784e-08 2.323562e-08
2.3345953e-08 1.7423925e-08 2.3856785e-08 1.8727187e-08 1.1859779e-08 5.4044995e-09 1.6165024e-09 6.1510713e-10
4.876799e-10 1.5347142e-10 0.0 0.0 0.0 0.0 2.5022434e-12 6.328984e-11
2.7848082e-10 3.5112316e-10 1.0315884e-09 2.9506777e-09 7.530473e-09 1.5804126e-08 2.7882416e-08 4.1848295e-08
6.8764635e-08 1.223199e-07 1.5672272e-07 1.8860442e-07 1.7295757e-07 1.8092608e-07 1.7278168e-07 1.5325644e-07
1.11617894e-07 6.366234e-08 4.754026e-08 2.9373787e-08 2.0544277e-08 5.162779e-09 7.997815e-10 0.0
0.0 1.21875435e-17 2.9492794e-11 8.285701e-12 8.088688e-10 1.2376596e-08 1.1151916e-08 1.9419522e-08
4.213809e-08 7.5820985e-08 1.10683445e-07 1.7468038e-07 2.5334796e-07 3.6658935e-07 4.6198568e-07 5.544774e-07
5.9963526e-07 6.060899e-07 4.7625835e-07 4.2208382e-07 3.2424694e-07 2.2442384e-07 1.7382973e-07 1.0923187e-07
6.223263e-08 1.6364693e-08 7.878585e-10 1.2234162e-10 0.0 0.0 1.8664911e-12 3.7565498e-10
3.1116527e-09 4.128942e-08 4.6847983e-08 6.730288e-08 1.2787822e-07 2.1405089e-07 3.3564226e-07 5.340327e-07
8.0207394e-07 1.0676756e-06 1.3203737e-06 1.49062e-06 1.3852281e-06 1.3195437e-06 1.043521e-06 7.639297e-07
5.762636e-07 3.9028538e-07 2.745921e-07 1.8457871e-07 9.4715254e-08 1.8885608e-08 1.9679156e-09 2.4620883e-10
0.0 1.5353097e-14 1.1508722e-10 1.7511584e-09 8.9218855e-09 4.294152e-08 8.774371e-08 1.6820754e-07
2.8838926e-07 4.3809416e-07 7.48012e-07 1.0857366e-06 1.4801291e-06 1.9345262e-06 2.3621128e-06 2.5790525e-06
2.4804915e-06 2.105667e-06 1.6181092e-06 1.2791987e-06 9.090796e-07 5.4646995e-07 3.510047e-07 2.2485119e-07
1.0291808e-07 3.4833572e-08 8.409041e-09 1.7561055e-09 7.969015e-18 1.2832278e-11 2.562458e-10 2.5318827e-09
2.7007282e-08 6.948318e-08 1.5712894e-07 2.9866118e-07 4.98477e-07 7.6340126e-07 1.1458266e-06 1.6109876e-06
2.0617424e-06 2.5905542e-06 2.9594582e-06 3.192403e-06 3.0348904e-06 2.4167969e-06 1.923661e-06 1.4745577e-06
1.0445245e-06 6.730442e-07 3.975401e-07 2.510716e-07 1.2991941e-07 4.7891955e-08 1.2751342e-08 7.6925244e-10
8.8080446e-11 2.7033747e-11 7.270404e-10 4.2385717e-09 3.4490753e-08 9.831041e-08 2.0755112e-07 4.11988e-07
6.916276e-07 9.802462e-07 1.4110996e-06 1.8966083e-06 2.3252255e-06 2.6681528e-06 2.7402589e-06 2.8715372e-06
2.8638192e-06 2.4327508e-06 2.0025502e-06 1.480526e-06 1.0262904e-06 6.711227e-07 4.4011705e-07 2.7159706e-07
1.4212073e-07 5.769642e-08 1.2712378e-08 1.1740002e-10 2.7178448e-15 7.942301e-11 1.0475908e-09 7.58811e-09
00000000: 0000 0000 0000 0000 0000 0000 0000 0000
00000010: 0000 0000 0000 0000 0000 0000 0000 0000
00000020: 0000 0000 0000 0000 0000 0000 0000 0000
00000030: a8e1 122b 01f9 312c 7379 f728 37fa 5b24
00000040: 0000 0000 0000 0000 0000 0000 0000 0000
00000050: 0000 0000 0000 0000 0000 0000 0000 0000
00000060: 0000 0000 0000 0000 0000 0000 0000 0000
00000070: 0000 0000 0000 0000 0000 0000 0000 0000
00000080: 222c 1e24 daed 0d27 c628 e32c ecf5 b92e
00000090: 9c41 db2e 933c f72e 19e4 972e a185 e12f
000000a0: 58c8 c430 0f25 a82f 1044 0e30 0edf ce30
000000b0: 4651 7431 bd5c 5f30 0784 3c2e debf a22e
000000c0: 5145 f92e f0d8 402d 5ee6 2e2c 6680 0b2b
000000d0: 0000 0000 0000 0000 0000 0000 0000 0000
000000e0: 0000 0000 0000 0000 3105 b922 6c2d f02c
000000f0: ee60 172c 83d2 c72b 942f de2e adad 842f
00000100: 2856 4230 529a 7d31 b80b 9631 c9eb ad31
00000110: ffb0 0e32 3383 0c33 3a3b ad32 ab97 c732
00000120: 4b8a c832 9eab 9532 a0ed cc32 85dd a032
00000130: dcbf 4b32 7bb2 b931 9f2b de30 5114 2930
00000140: 6c0d 0630 5dbe 282f 0000 0000 0000 0000
00000150: 0000 0000 0000 0000 6914 302c 032d 8b2e
00000160: b118 992f 3108 c12f cac7 8d30 dfc4 4a31
00000170: 5f5f 0132 a4c1 8732 1582 ef32 b0bc 3333
00000180: c2ab 9333 0a57 0334 9d47 2834 3083 4a34
00000190: 37b6 3934 9544 4234 de85 3934 cf8e 2434
000001a0: 96b2 ef33 beb6 8833 122f 4c33 a451 fc32
000001b0: 5879 b032 4964 b131 9fd7 5b30 0000 0000
000001c0: 0000 0000 0cd2 6023 efb5 012e 7bc3 112d
000001d0: 1557 5e30 d8a0 5432 a596 3f32 fbcf a632
000001e0: 52fb 3433 07d3 a233 deb0 ed33 c78f 3b34
000001f0: e103 8834 a8cf c434 d406 f834 66d7 1435
00000200: 9ff6 2035 2eb2 2235 73b0 ff34 c29a e234
00000210: 2914 ae34 28f9 7034 f4a5 3a34 db92 ea33
00000220: c0a4 8533 5792 8c32 9d90 5830 1b84 062f
00000230: 0000 0000 0000 0000 b757 032c bd84 ce2f
00000240: c6d4 5531 3356 3133 e735 4933 2688 9033
00000250: e64e 0934 dcd5 6534 5232 b434 735a 0f35
00000260: 1a4e 5735 0e4d 8f35 b237 b135 5011 c835
00000270: 13ec b935 2d1b b135 1c0f 8c35 d910 4d35
00000280: 88b0 1a35 6a88 d134 a76b 9334 9c30 4634
00000290: 4366 cb33 e439 a232 f03b 0731 d05a 872f
000002a0: 0000 0000 d549 8a28 5814 fd2e 69ad f030
000002b0: de46 1932 b36e 3833 9d6d bc33 899c 3434
000002c0: ebd3 9a34 3433 eb34 feca 4835 a0b9 9135
000002d0: d9a8 c635 e8d2 0136 ca84 1e36 c913 2d36
000002e0: 8576 2636 154f 0d36 cf2d d935 efb0 ab35
000002f0: 7907 7435 21b1 1235 b871 bc34 a06e 7134
00000300: d003 dd33 eb9b 1533 5a77 1032 785b f130
00000310: 9c00 1323 71bf 612d 64df 8c2f 5afd 2d31
00000320: a4fd e732 c836 9533 46b7 2834 ae57 a034
00000330: 14cf 0535 89ec 4c35 4dca 9935 1d39 d835
00000340: 775c 0a36 62d9 2d36 1b9b 4636 113d 5636
00000350: 05ab 4b36 4130 2236 3f18 0136 6be9 c535
00000360: 9731 8c35 3fab 3435 7f6d d534 05cb 8634
00000370: fa7f 0b34 c3b1 4d33 ff10 5b32 5473 5330
00000380: e2b0 c12e 96ca ed2d ebd8 4730 dfa2 9131
00000390: fc22 1433 b81e d333 38db 5e34 332f dd34
000003a0: 49a8 3935 0191 8335 0365 bd35 f78e fe35
000003b0: 120b 1c36 840e 3336 4ae5 3736 a2b4 4036
000003c0: 0a30 4036 5742 2336 8d63 0636 7cb6 c635
000003d0: 12bf 8935 3327 3435 3a49 ec34 04d0 9134
000003e0: d999 1834 e2cd 7733 a165 5a32 2b15 012f
000003f0: 63d7 4327 2ea7 ae2e d3fa 8f30 dc5c 0232

exp_avg f4 [100]
0.00091374415 0.00076041516 -0.0002844028 0.0003811076 -0.00029246666 -0.0004771866 -0.0007489724 -0.00065586815
0.00022023276 0.000600652 -0.0008402289 -0.00096277875 0.00019807018 0.0010563862 0.00042767084 0.0012523339
-0.00058343646 3.669607e-05 -0.0009054655 0.00084614655 -0.0010760357 0.0010602925 0.00060873944 -0.00010895198
-0.00046046625 6e-45 0.0018553638 -9.133802e-05 -0.00010198787 -0.00010188383 -0.00025826643 -0.00041242727
-0.0008398804 0.0013483489 -0.00012961724 8.203363e-05 0.00064562657 -0.0013853214 -0.00078276626 -0.00013080696
0.00059276365 0.00018390163 -9.6231845e-05 0.00033828313 -0.00020972312 0.000352605 6e-45 7.36932e-05
0.0008063242 -0.00074864563 0.0005555171 6e-45 0.00033108928 0.0013267834 0.0016076589 0.0009179808
-6.456704e-05 0.0006249216 0.00025103262 -4.9821505e-05 0.00035817828 0.000495062 0.0004231357 0.0002840508
-1.4435992e-05 -0.0027978697 0.0009690856 7.60758e-05 -0.0004444375 0.00067878043 0.0006182965 0.00032050497
0.00045778297 -4.2648076e-05 -0.0006239292 0.00021028989 0.00039392675 -0.00036126797 -0.00024271377 0.0010382141
-0.0005821399 0.00024463612 0.0013369593 0.001271636 0.00094045047 -0.00042885495 0.0018526373 0.00093059696
0.0002457956 0.001351398 0.00092226424 0.00045626084 0.00087168545 0.0006899746 0.0013490907 -7.628295e-05
-3.0052428e-05 -0.00048574654 -0.0024995208 -0.00047852923
00000000: 5588 6f3a 9956 473a e61b 95b9 65cf c739
00000010: 3656 99b9 e72e fab9 b056 44ba 91ee 2bba
00000020: 48ee 6639 1375 1d3a cf42 5cba fd62 7cba
00000030: 0fb1 4f39 7076 8a3a 0239 e039 5a25 a43a
00000040: c2f1 18ba 1bea 1938 c35c 6dba efcf 5d3a
00000050: c409 8dba 83f9 8a3a d093 1f3a 267d e4b8
00000060: bc6a f1b9 0400 0000 ae2f f33a ba8c bfb8
00000070: 52e2 d5b8 77aa d5b8 ef67 87b9 0d3b d8b9
00000080: 6b2b 5cba 15bb b03a dde9 07b9 7809 ac38
00000090: 443f 293a ac93 b5ba 8e32 4dba 3a29 09b9
000000a0: b263 1b3a b8d5 4039 14d0 c9b8 985b b139
000000b0: 1fe9 5bb9 d8dd b839 0400 0000 bc8b 9a38
000000c0: 805f 533a c240 44ba 1fa0 113a 0400 0000
000000d0: 0d96 ad39 77e7 ad3a 15b8 d23a a6a4 703a
000000e0: 2a68 87b8 c7d1 233a 079d 8339 6ff7 50b8
000000f0: e0c9 bb39 0cc7 013a 50d8 dd39 a7ec 9439
00000100: 1d32 72b7 775c 37bb 3c0a 7e3a e28a 9f38
00000110: 6403 e9b9 2ff0 313a 2d15 223a 7309 a839
00000120: 9702 f039 06e1 32b8 2e8f 23ba 4381 5c39
00000130: f487 ce39 9168 bdb9 fb80 7eb9 af14 883a
00000140: bf9a 18ba 8142 8039 e93c af3a 06ad a63a
00000150: 9088 763a f0d7 e0b9 31d4 f23a 4ef3 733a
00000160: 21de 8039 6421 b13a 1bc4 713a 4b36 ef39
00000170: d281 643a 69df 343a f9d3 b03a 19fa 9fb8
00000180: 1919 fcb7 ccab feb9 00cf 23bb 1be3 fab9

exp_avg_sq f4 [100]
6.7307615e-06 1.2067232e-05 1.5384187e-05 1.2013475e-05 9.274753e-06 5.959395e-06 1.0858733e-05 6.3703374e-06
4.6150594e-06 1.1175299e-05 8.393214e-06 1.4476674e-05 1.1173865e-05 8.80694e-06 7.519673e-06 1.126824e-05
1.146995e-05 7.376933e-06 1.581024e-05 1.9153e-05 1.2002833e-05 9.6861e-06 1.393056e-05 9.219148e-06
9.083202e-06 3.6709423e-08 1.4647585e-05 9.813749e-06 7.0012698e-06 7.958048e-06 8.44676e-06 1.03006005e-05
6.345339e-06 1.1263901e-05 1.394492e-05 7.284714e-06 1.0567152e-05 1.2417272e-05 9.758128e-06 8.54143e-06
5.839315e-06 1.3588634e-05 9.528306e-06 1.015516e-05 1.1079739e-05 1.3306883e-05 1.817804e-08 1.2234326e-05
1.15374505e-05 1.1855226e-05 5.288196e-06 7.017337e-09 7.753588e-06 7.766423e-06 8.826074e-06 9.538398e-06
1.4376384e-05 9.120803e-06 8.385122e-06 6.828301e-06 5.926658e-06 1.1373272e-05 9.244629e-06 1.02335525e-05
5.8599785e-06 1.1572744e-05 9.55946e-06 1.1424347e-05 1.15310995e-05 7.537833e-06 8.852358e-06 9.058234e-06
5.4493107e-06 9.591982e-06 7.2508433e-06 7.660491e-06 1.2012653e-05 1.0801886e-05 3.73842e-06 7.0012607e-06
1.0960394e-05 7.200998e-06 1.4469674e-05 1.0562067e-05 1.5821879e-05 9.12326e-06 1.0414088e-05 5.884532e-06
8.238743e-06 1.2058161e-05 1.0423154e-05 1.528182e-05 1.17045665e-05 7.828085e-06 2.2304794e-05 9.320746e-06
1.2927207e-05 9.573917e-06 1.3634453e-05 1.0156478e-05
00000000: cdd8 e136 5e74 4a37 4a0d 8137 7b8d 4937
00000010: c39a 1b37 d0f6 c736 e72d 3637 c8c0 d536
00000020: 0fdb 9a36 8b7d 3b37 94d0 0c37 d7e0 7237
00000030: 6277 3b37 85c1 1337 8051 fc36 b90c 3d37
00000040: 0f6f 4037 5f87 f736 3ba0 8437 c1aa a037
00000050: c65f 4937 7c81 2237 4db7 6937 f0ab 1a37
00000060: 0e64 1837 70aa 1d33 e6be 7537 bba5 2437
00000070: 73ec ea36 8e83 0537 8fb6 0d37 bed0 2c37
00000080: 0cea d436 16fa 3c37 faf4 6937 376f f436
00000090: 9249 3137 c753 5037 d7b6 2337 2a4d 0f37
000000a0: 55ef c336 bdfa 6337 c3db 1f37 1560 2a37
000000b0: 1ee3 3937 a140 5f37 ef25 9c32 0842 4d37
000000c0: f990 4137 cfe5 4637 4271 b136 261d f131
000000d0: 6815 0237 884c 0237 b313 1437 1c07 2037
000000e0: 1932 7137 8d05 1937 d3ad 0c37 a91e e536
000000f0: 9bdd c636 d5cf 3e37 6119 1b37 c6b0 2b37
00000100: d5a0 c436 8f28 4237 9161 2037 32ab 3f37
00000110: b275 4137 7eed fc36 9784 1437 d2f8 1737
00000120: 39d9 b636 40ed 2037 454c f336 8f85 0037
00000130: f489 4937 bf39 3537 91e1 7a36 5fec ea36
00000140: 89e2 3737 1aa0 f136 c7c2 7237 bb33 3137
00000150: 3ab9 8437 1a10 1937 2bb8 2e37 bf73 c536
00000160: 2239 0a37 684d 4a37 1bdf 2e37 7531 8037
00000170: bb5e 4437 5e55 0337 2e1b bb37 4d60 1c37
00000180: eee1 5837 a99f 2037 88bf 6437 be65 2a37

exp_avg f4 [10, 100]
-0.0021993183 -0.00024857032 -0.0014290647 0.00048559075 0.0005836925 -0.0015353946 -0.001466524 -0.001542322
-0.0013862442 -0.0009257568 -0.0016989672 -0.0022017632 0.00079480495 -0.0012432849 -0.0017504729 -0.001608819
-0.0019262459 -0.00075209746 -0.0037926761 0.00032780715 -0.0044536833 0.000349701 6.1722356e-05 -0.0005712892
-0.0022698424 6e-45 -0.0003046338 -0.0004968794 -0.0038125417 -0.0012712785 -0.0011331651 -0.0009843189
-0.00095270335 -6.2160114e-05 -0.0017302218 -0.0021141851 0.00014800197 -0.002328109 -0.0026714585 -0.0033041474
-0.0016829444 -0.0007283238 -0.00052095734 -0.002892623 -0.0022959916 -0.00067507924 6e-45 0.000301816
0.00010980061 -0.0007247547 -0.0029451535 6e-45 -0.0022932526 0.00016506585 0.00078569463 -0.00055354636
-0.00023882333 0.00053987437 -0.0015797339 -0.000502305 -0.0023959707 -0.00092220725 -0.00046407018 -0.0009963282
-0.004967324 0.0004898467 -0.0025218015 0.0019154701 -0.00015317409 -0.0011426264 -0.0010841342 -0.0013877164
-0.0040050745 2.9228264e-05 -0.004156675 0.00021202951 -0.00012083649 -0.002283622 -0.00033550328 0.0013761965
-0.0044131842 -0.00050077616 -0.0008026366 -0.0018305486 0.0007946608 -0.004129394 0.00040351457 0.0006689059
-0.004692824 0.0010173278 -0.002659343 -0.000113924805 -0.0015841235 0.000375638 -0.0013434802 -0.0020030898
-0.0031870448 -0.0005612394 -0.0019642871 7.406949e-05 -0.00051178277 -0.0033188837 -0.0040155863 -5.039961e-05
-0.0013693982 -0.0004895715 -0.0024074186 -0.00051148824 -0.0024443853 -0.0034567574 -0.0023237616 -0.0024380458
-0.00079722726 -0.001338959 -0.00023771358 -0.0067735603 -0.0005500921 0.00054206356 -7.938425e-06 -0.0027307752
-0.0030744772 -0.0045845564 0.0004572649 -0.002790923 -0.0015308021 -6e-45 -0.0014640801 0.0004096824
-0.0013989273 -0.0009539225 -0.0019372986 0.00020093081 -0.0044079376 -0.0047849924 -0.0020307975 -0.00018101139
-0.001783897 -0.0021719353 -0.003083072 -0.0026331784 -0.00023540405 -0.0033925185 -0.0032163204 -0.0015124107
-0.0019466424 -0.00031544015 -6e-45 -0.0004571104 -0.0025052598 -0.0025369157 -0.0021883862 6e-45
-0.0004922111 -0.00051418756 -0.0013556749 -0.0015080541 -0.004223293 -0.0037008096 -9.130637e-05 -7.219144e-05
-0.00049910496 -0.0050102375 -0.0011893343 -0.0027199744 0.00023464167 -0.00077826355 -0.0017125997 -0.0008972245
-0.00012190817 -0.002877786 -0.003068827 -0.0024669557 -0.00033650058 0.00052658 7.999416e-05 -0.002597059
-0.0030640317 -0.0012106166 -0.0036589801 -0.005534132 0.000332888 -0.0016967397 -0.0026775117 -0.005438782
-0.0035504175 -0.0034402306 -0.0060394416 -0.0043751383 -0.0037523294 -0.0015236816 -1.150386e-05 -0.0010888593
-0.0031901682 -8.625373e-05 -0.005024677 -0.0027713345 -0.00046112947 -0.0025359718 -0.0030583842 -0.004496857
0.002282391 0.0010000276 0.00065813214 0.0031056274 0.00032785593 0.0021140745 0.0064705284 0.003977063
0.00088202953 0.010231495 0.0054244827 0.0007796472 0.0025895492 0.0035704705 -0.00032661893 0.008605215
0.0033436022 0.005057239 -0.0016722439 0.003015234 0.0049615116 0.0053334124 0.0026878677 0.01506861
0.0034968266 -6e-45 0.0058532944 0.0006411863 0.002474631 0.0015018479 0.0069674584 0.0019149906
0.0028401501 0.013217757 0.0024717948 0.0009420199 0.01068251 0.0018978709 0.0056166104 0.0087208105
0.00877234 0.010361678 0.011932294 0.005478448 0.00080612063 0.0033746795 -6e-45 0.0026809543
0.009139659 0.008672755 0.010885061 -6e-45 0.008568767 0.0061904844 0.0083244955 0.0071196123
00000000: 7022 10bb 8b52 82b9 744f bbba e396 fe39
00000010: f102 193a 4b3f c9ba 6138 c0ba bd27 caba
00000020: a3b2 b5ba 7dae 72ba e1af deba 754b 10bb
00000030: 755a 503a b8f5 a2ba 2070 e5ba 02df d2ba
00000040: 167a fcba 6828 45ba 8c8e 78bb 88dd ab39
00000050: 34f0 91bb 1358 b739 f070 8138 92c2 15ba
00000060: a3c1 14bb 0400 0000 42b7 9fb9 0341 02ba
00000070: d6db 79bb 07a1 a6ba b686 94ba 4304 81ba
00000080: d7be 79ba f55b 82b8 9cc8 e2ba 248e 0abb
00000090: fa30 1b39 3093 18bb a313 2fbb 658a 58bb
000000a0: 3e96 dcba fcec 3eba db90 08ba 2992 3dbb
000000b0: 5978 16bb cdf7 30ba 0400 0000 0f3d 9e39
000000c0: c144 e638 77fd 3dba 7a03 41bb 0400 0000
000000d0: 654a 16bb 8715 2d39 13f7 4d3a de1b 11ba
000000e0: a66c 7ab9 5b86 0d3a 130f cfba 1ead 03ba
000000f0: b805 1dbb 48c0 71ba 724e f3b9 3a97 82ba
00000100: efc4 a2bb 0e69 003a cf44 25bb 8310 fb3a
00000110: 5b9d 20b9 2ec4 95ba 8219 8eba 09e4 b5ba
00000120: 003d 83bb 382f f537 b834 88bb 3d54 5e39
00000130: 9969 fdb8 d2a8 15bb 7de6 afb9 7e61 b43a
00000140: 799c 90bb 8546 03ba 0868 52ba 05ef efba
00000150: c950 503a de4f 87bb cf8e d339 8459 2f3a
00000160: 43c6 99bb db57 853a 5f48 2ebb eaea eeb8
00000170: 5da2 cfba 47f1 c439 b717 b0ba 4546 03bb
00000180: bddd 50bb 2320 13ba 45bb 00bb c155 9b38
00000190: 2929 06ba a181 59bb 2e95 83bb 2b64 53b8
000001a0: 617d b3ba 9656 00ba c8c5 1dbb 6515 06ba
000001b0: fb31 20bb c48a 62bb 404a 18bb 9fc7 1fbb
000001c0: 04fd 50ba 0280 afba c142 79b9 bef4 ddbb
000001d0: 0e34 10ba 4519 0e3a 472f 05b7 cef6 32bb
000001e0: 2b7d 49bb 0c3a 96bb 0ebd ef39 ebe7 36bb
000001f0: 32a5 c8ba 0400 0080 60e6 bfba a4ca d639
00000200: 365c b7ba a810 7aba f4ec fdba f4b0 5239
00000210: 7670 90bb 6dcb 9cbb 2117 05bb e0cd 3db9
00000220: a7d1 e9ba 0757 0ebb 5d0d 4abb 6791 2cbb
00000230: cbd6 76b9 0455 5ebb e7c8 52bb 153c c6ba
00000240: 7b26 ffba a961 a5b9 0400 0080 52a8 efb9
00000250: 492f 24bb 6242 26bb 076b 0fbb 0400 0000
00000260: ba07 01ba 8bca 06ba e7b0 b1ba e6a9 c5ba
00000270: 8d63 8abb 4889 72bb bc7b bfb8 7c65 97b8
00000280: 5ed6 02ba eb2c a4bb 70e3 9bba 9941 32bb
00000290: 250a 7639 6204 4cba 4f79 e0ba b833 6bba
000002a0: f3a8 ffb8 3d99 3cbb 601e 49bb a6ac 21bb
000002b0: 586c b0b9 300a 0a3a 8ac2 a738 6b33 2abb
000002c0: eccd 48bb 8dad 9eba 80cb 6fbb aa57 b5bb
000002d0: 7987 ae39 2365 deba 3179 2fbb cf37 b2bb
000002e0: 1fae 68bb 7e75 61bb 82e6 c5bb 525d 8fbb
000002f0: a4e9 75bb 45b6 c7ba b400 41b7 0eb8 8eba
00000300: 2412 51bb 1ee3 b4b8 0ca6 a4bb 479f 35bb
00000310: c0c3 f1b9 8c32 26bb 2c6f 48bb 5f5a 93bb
00000320: 2b94 153b 5c13 833a 8086 2c3a c887 4b3b
00000330: 14e4 ab39 498c 0a3b ba06 d43b 0652 823b
00000340: 0038 673a 00a2 273c dcbf b13b 3d61 4c3a
00000350: 6db5 293b 8efe 693b 0d3e abb9 e3fc 0c3c
00000360: 5620 5b3b 32b7 a53b 322f dbba 3b9b 453b
00000370: 2d94 a23b e8c3 ae3b f026 303b 55e2 763c
00000380: 042b 653b 0400 0080 fecc bf3b 4915 283a
00000390: 6b2d 223b a7d9 c43a 474f e43b 6c00 fb3a
000003a0: d021 3a3b 4b8f 583c d6fd 213b e3f1 763a
000003b0: b205 2f3c fbc1 f83a 8b0b b83b bbe1 0e3c
000003c0: dcb9 0f3c 07c4 293c ab7f 433c 8d84 b33b
000003d0: d751 533a ba29 5d3b 0400 0080 f3b2 2f3b
000003e0: 82be 153c 2c18 0e3c 4157 323c 0400 0080
000003f0: 0464 0c3c 8cd9 ca3b 7763 083c a34b e93b

exp_avg_sq f4 [10, 100]
0.00012212491 1.7389888e-05 4.3510292e-05 0.00037300424 0.00012507493 0.0002938743 0.00023407434 0.00027545675
6.045847e-05 8.1834754e-05 7.393577e-05 5.685151e-05 2.695899e-05 4.3627846e-05 4.6874316e-05 0.00011105785
0.00014217585 0.00024856612 4.9082464e-05 9.347511e-06 2.8349543e-05 9.109907e-05 9.697307e-06 0.00020864984
0.00018018074 2.9350957e-09 2.782397e-05 5.830037e-05 9.365301e-05 0.00014398606 6.831265e-05 8.002817e-05
1.9970359e-05 0.00013580792 0.00013318042 0.000113451344 0.0003690883 4.502112e-05 0.0001320667 0.00021609863
0.00010981108 0.00019856112 0.00013853317 7.2451025e-05 0.00020917006 7.656264e-05 5.1999327e-10 1.813922e-05
6.568932e-05 7.468322e-05 0.0005226631 1.1743205e-09 0.00053995266 0.00017740573 1.9927713e-05 4.4998298e-05
1.3782197e-05 0.000275309 1.873115e-05 5.875839e-05 0.00019430673 0.00013313143 0.00027622483 3.947286e-05
0.00016725603 3.7237456e-05 0.00014563218 0.0003888373 2.8488226e-05 0.00038311796 0.00028988344 0.00022645942
0.00024809933 2.5189891e-05 0.00023739132 0.0002366655 2.3284112e-05 0.000303801 1.4672223e-05 1.6137707e-05
0.00010743269 2.0605468e-05 1.3734826e-05 6.65059e-05 0.00012118046 0.00024083238 1.6873446e-05 5.9544676e-05
0.00024531235 2.022255e-05 5.1704796e-05 5.5477332e-05 0.00025284415 5.283037e-05 3.084504e-05 6.5962646e-05
9.862307e-05 1.9161263e-05 6.936443e-05 4.4782202e-05 2.4766126e-05 0.00010744159 6.864532e-05 5.883354e-05
5.2019503e-05 2.2299173e-05 7.642774e-05 3.0985306e-05 5.239193e-05 0.0001777904 0.00012818903 4.8696682e-05
5.8274287e-05 3.435609e-05 1.163833e-05 0.00012530744 4.901436e-06 7.647566e-05 6.4619676e-06 4.8848164e-05
0.000106619984 4.7111684e-05 1.059792e-05 0.0002169433 5.5441666e-05 3.4958465e-08 7.631067e-05 1.3935832e-05
6.383898e-05 6.907411e-06 0.00019093238 1.2639133e-05 7.913142e-05 0.00017405684 2.0689613e-05 8.277827e-06
8.7967666e-05 4.256689e-05 7.4788426e-05 0.00011421144 8.1117374e-05 5.396748e-05 0.00014210338 9.3226125e-05
4.03247e-05 1.9285686e-05 4.0865378e-09 4.6642373e-05 0.00021108716 0.00021947414 8.6474975e-05 1.9858209e-11
0.000102390244 9.587094e-05 0.00012047671 0.00022202563 0.00026010236 0.0002655252 1.1188082e-05 2.36267e-05
3.4215445e-05 0.0003206234 0.00016045541 7.234086e-05 1.8668576e-05 0.00015244693 1.7890154e-05 0.00012593763
2.1015972e-05 0.0001281325 0.00019176355 5.6266166e-05 2.3463654e-05 7.623119e-05 2.1141957e-05 0.00022512223
0.00012223076 0.00012575877 0.00011809485 0.00014131978 1.6746999e-05 0.00011014533 3.1529205e-05 7.543733e-05
0.00016579285 0.00013622352 0.00024501228 0.00014291375 4.5106357e-05 4.824822e-05 2.6684926e-05 5.6988283e-05
6.301279e-05 0.000100700956 3.9220267e-05 4.49426e-05 9.483094e-06 6.0284885e-05 0.0003754831 0.00017072671
0.00015210213 4.382329e-05 0.00011910831 0.00028559798 9.226135e-05 0.00014775789 0.00019875405 0.00021252483
0.00011434313 0.0002676718 0.00012648942 0.00013746711 9.729746e-05 0.00016609086 0.00012492311 0.0004556598
6.49322e-05 0.00026806572 8.971407e-05 3.440623e-05 6.4527056e-05 0.0002685009 1.811512e-05 0.00056340575
0.00013288495 9.036437e-10 0.00018129473 0.00011707563 0.00012884574 5.8786954e-05 0.00023715971 6.2525316e-05
3.246991e-05 0.00050479174 0.00012572891 4.282276e-05 0.00051056565 2.9883475e-05 0.00018065075 0.00031029384
0.00024370299 0.00030583984 0.00039827268 0.00022582848 0.00012613022 9.398804e-05 5.168977e-09 7.646794e-05
0.0003520563 0.00021033642 0.0005803351 6.89599e-09 0.0006698864 0.00046088692 0.00024341175 0.0003291013
00000000: a80e 0039 80e0 9137 d27e 3638 c88f c339
00000010: 8c26 0339 2413 9a39 da71 7539 2e6b 9039
00000020: ca94 7d38 b39e ab38 f70d 9b38 d873 6e38
00000030: fd25 e237 0bfd 3638 ea9a 4438 bbe7 e838
00000040: 0a15 1539 fb51 8239 e5dd 4d38 41d3 1c37
00000050: 2ed0 ed37 710c bf38 9eb1 2237 04c9 5a39
00000060: e6ee 3c39 c0b2 4931 8567 e937 8c87 7438
00000070: 9467 c438 f7fa 1639 1343 8f38 ccd4 a738
00000080: 0586 a737 a967 0e39 59a6 0b39 baec ed38
00000090: 3182 c139 0fd5 3c38 637b 0a39 8998 6239
000000a0: 604a e638 d834 5039 3743 1139 d9f0 9738
000000b0: a954 5b39 4190 a038 46ef 0e30 ae29 9837
000000c0: afc2 8938 409f 9c38 5403 093a bb65 a130
000000d0: 9c8b 0d3a fd05 3a39 702a a737 8ebc 3c38
000000e0: 163a 6737 5957 9039 d720 9d37 5773 7638
000000f0: d1be 4b39 3299 0b39 45d2 9039 a98f 2538
00000100: 7361 2f39 6a2f 1c38 d7b4 1839 dcdc cb39
00000110: 00fa ee37 39dd c839 7ffb 9739 bd75 6d39
00000120: 5413 8239 e14e d337 3fec 7839 6929 7839
00000130: 4052 c337 7b47 9f39 b828 7637 765f 8737
00000140: 7c4d e138 e8d9 ac37 a16e 6637 1579 8b38
00000150: 4422 fe38 f387 7c39 738b 8d37 9cbf 7938
00000160: 449d 8039 98a3 a937 9add 5838 55b0 6838
00000170: 2b90 8439 2e96 5d38 9c5f 0138 6d55 8a38
00000180: dcd3 ce38 80bc a037 bf77 9138 86d4 3b38
00000190: dac0 cf37 4452 e138 adf5 8f38 08c4 7638
000001a0: 842f 5a38 1c0f bb37 d547 a038 38f6 0138
000001b0: 68bf 5b38 3f6d 3a39 7b6a 0639 aa3f 4c38
000001c0: 8a6b 7438 9219 1038 3f42 4337 f664 0339
000001d0: 0477 a436 8f61 a038 e1d3 d836 51e2 4c38
000001e0: 2b99 df38 c999 4538 b8cd 3137 467b 6339
000001f0: 098a 6838 3d25 1633 fb08 a038 f1cd 6937
00000200: 4be1 8538 35c6 e736 0535 4839 aa0c 5437
00000210: 5cf3 a538 0783 3639 9b8e ad37 ffe0 0a37
00000220: 487b b838 da89 3238 bbd7 9c38 cd84 ef38
00000230: 8f1d aa38 245b 6238 9601 1539 6582 c338
00000240: 5122 2938 b2c7 a137 9169 8c31 dea1 4338
00000250: 4757 5d39 a422 6639 e659 b538 b6ac ae2d
00000260: 58ba d638 520e c938 71a8 fc38 8dcf 6839
00000270: 595e 8839 3036 8b39 72b4 3b37 f431 c637
00000280: 8e82 0f38 5819 a839 ec3f 2839 b4b5 9738
00000290: 769a 9c37 29da 1f39 d012 9637 200e 0439
000002a0: 754b b037 4e5b 0639 2314 4939 56ff 6b38
000002b0: d0d3 c437 4fde 9f38 025a b137 ca0e 6c39
000002c0: 122b 0039 1dde 0339 b1a9 f738 3d2f 1439
000002d0: e87b 8c37 d3fd e638 3a3e 0438 1c34 9e38
000002e0: aed8 2d39 39d7 0e39 fe74 8039 1edb 1539
000002f0: 9530 3d38 225e 4a38 71d9 df37 b406 6f38
00000300: bc25 8438 6a2f d338 7180 2438 c080 3c38
00000310: 9419 1f37 67da 7c38 7ddc c439 1a05 3339
00000320: 9b7d 1f39 e6ce 3738 c9c9 f938 50bc 9539
00000330: 6f7c c138 75ef 1a39 a268 5039 33d9 5e39
00000340: 80cb ef38 4d56 8c39 3fa2 0439 0c25 1039
00000350: 2d0c cc38 ad28 2e39 cbfd 0239 a0e5 ee39
00000360: 362c 8838 2c8b 8c39 e024 bc38 684f 1038
00000370: b352 8738 95c5 8c39 edf5 9737 85b1 133a
00000380: 0857 0b39 4664 7830 ef19 3e39 8086 f538
00000390: c41a 0739 0392 7638 13ae 7839 0620 8338
000003a0: 4d30 0838 0054 043a 19d6 0339 979c 3338
000003b0: 7bd7 053a 46ae fa37 116d 3d39 efae a239
000003c0: 868a 7f39 2159 a039 41cf d039 5fcc 6c39
000003d0: d341 0439 721b c538 cd9a b131 6a5d a038
000003e0: 3294 b839 c18d 5c39 a121 183a c5f1 ec31
000003f0: 519b 2f3a 32a3 f139 583c 7f39 3b8b ac39

exp_avg f4 [10]
-0.00050702743 -0.0019764265 0.004247251 0.0011862522 0.0005183776 -0.002160554 -0.0011967408 -0.00024178709
-0.00059711776 0.0007277736
00000000: 09ea 04ba ef86 01bb 862c 8b3b 057c 9b3a
00000010: bbe3 073a 1598 0dbb f5db 9cba 3a88 7db9
00000020: e587 1cba 0fc8 3e3a

exp_avg_sq f4 [10]
4.7926787e-05 5.780209e-05 9.040545e-05 0.00012288308 9.3236755e-05 0.00012517766 6.343364e-05 8.191834e-05
0.00013876134 0.00013060858
00000000: ff04 4938 8670 7238 0e98 bd38 2dda 0039
00000010: 1a88 c338 1f42 0339 ad07 8538 93cb ab38
00000020: 7780 1139 f9f3 0839

layer1.weight f4 [100, 784]
0.007996496 -0.00038312163 0.025470484 0.03399439 -0.026096089 -0.033014435 -0.032646444 -0.03444357
0.010909643 0.013299274 -0.029411066 0.024664994 0.012696603 -0.0017291653 -0.01675927 -0.00980562
0.026272068 -0.029665012 -0.02570622 0.022411667 0.00825572 -0.018893301 -0.019640028 -0.032865375
-0.021044953 0.027250769 -0.027296063 0.024053864 0.035583876 -0.013997679 0.033645228 0.029763188
-0.0014142491 0.007841708 -0.019466685 -0.008060259 0.012624352 0.06325363 0.05689399 0.035550192
-0.0044372003 0.04637606 0.020596532 -0.06909633 -0.04087657 -0.0012212348 0.11521935 0.056200217
0.04550665 0.01674198 -0.037433453 -0.0040968447 0.035377786 0.020375056 -0.030328944 0.0018264354
0.024514144 0.0038739913 -0.00039071764 0.010718171 0.012018123 0.031585373 0.046732504 0.0034510298
0.05184069 0.033481874 0.078094535 0.04705324 0.082987085 -0.0030823466 0.08708269 0.0030035963
-0.021726854 0.012789082 0.010785857 0.038989868 0.02626218 0.080317624 0.0988057 0.017433533
-0.008298884 -0.049182087 -0.008471 -0.02842302 0.021928158 -0.02242572 -0.016992 -0.033590708
-0.024417484 0.057320353 0.024674822 0.024893377 0.019374255 -0.02238298 0.023674848 0.089507535
-0.016141364 -0.039994583 -0.021043345 0.026711257 0.024994023 -0.0024104866 0.02507013 0.008896366
0.022554472 0.05994468 0.016686277 0.02717133 0.0153086465 0.007765881 0.04489353 -0.019546948
0.0057206457 0.03844956 -0.03481311 0.014362409 0.13064788 0.044252947 0.0574191 0.041289654
-0.027013673 -0.060129758 -0.085562326 -0.07407857 -0.05039198 -0.0984748 -0.08851852 -0.13508661
-0.08222783 -0.017338406 0.007791614 0.011908722 0.009548363 -0.027869133 0.052864797 0.008726586
0.02966934 -0.042001434 -0.02233463 0.026138678 -0.02431778 -0.015388344 -0.07169502 -0.06460526
0.057322405 0.011678443 0.055735648 0.071773104 0.04986655 0.058880802 -0.029618094 -0.021508286
-0.07793037 -0.08759812 -0.037266012 -0.09281786 -0.06568607 -0.045017276 -0.059109047 -0.008460223
-0.02836787 -0.07798314 -0.014951546 0.0016808431 0.04329598 -0.050240424 -0.014566826 0.015386525
0.019267969 -0.035178393 0.020588325 0.02015741 0.05623473 0.056105226 0.07407177 0.10447733
0.060377136 0.07148075 0.018868295 -0.001988377 -0.020638578 -0.027100068 -0.011641062 -0.005571037
-0.010537643 0.0046308204 -0.08042576 -0.07189822 -0.07508926 -0.03235887 -0.008764539 -0.026562737
-0.006491024 -0.054410685 -0.054550108 -0.029251186 0.033558555 0.0010485412 0.07709785 0.10203012
0.014512154 0.05149988 0.011898986 -0.0019476434 -0.0073674642 0.038481656 -0.05656524 0.0049896035
-0.030670645 0.05232623 -0.012244907 0.027597822 0.044010125 -0.0023387843 -0.034491602 -0.06221035
-0.023189366 -0.021531202 -0.010772242 -0.022592137 -0.047363233 -0.030226236 -0.035911426 -0.03787217
-0.030181045 -0.0408006 0.04304745 0.058707405 0.07418926 0.055650447 -0.007584452 -0.0052183135
-0.010999994 -0.0076291002 -0.038439486 -0.0046238187 -0.035611853 -0.0075838757 0.048056275 0.045554884
-0.041564036 -0.07867242 -0.05037132 -0.058702048 -0.013772796 -0.035699468 -0.07566055 -0.06681931
-0.05613908 -0.06679618 -0.09180241 -0.081216335 0.056792177 0.025263777 0.050289858 0.016831193
00000000: bc03 033c b7dd c8b9 7aa7 d03c b43d 0b3d
00000010: 77c7 d5bc 253a 07bd 47b8 05bd b314 0dbd
00000020: 5cbe 323c 33e5 593c 7aef f0bc 3e0e ca3c
00000030: 6a05 503c 29a5 e2ba bd4a 89bc c0a7 20bc
00000040: 8538 d73c 0a04 f3bc da95 d2bc ac98 b73c
00000050: 0043 073c 20c6 9abc 20e4 a0bc d89d 06bd
00000060: 7766 acbc 013d df3c fe9b dfbc 9c0c c53c
00000070: 66c0 113d 8556 65bc 94cf 093d eed1 f33c
00000080: 535e b9ba 827a 003c 9978 9fbc 2d0f 04bc
00000090: 5fd6 4e3c 1f8b 813d ac09 693d 149d 113d
000000a0: ef65 91bb d3f4 3d3d 0fba a83c 6082 8dbd
000000b0: 316e 27bd d711 a0ba 1ff8 eb3d 3332 663d
000000c0: 2e65 3a3d 7a26 893c d253 19bd d33e 86bb
000000d0: 4ce8 103d 97e9 a63c 6874 f8bc 0165 ef3a
000000e0: e3d1 c83c cae2 7d3b 3cd9 ccb9 449b 2f3c
000000f0: a9e7 443c aa5f 013d 956a 3f3d ac2a 623b
00000100: e756 543d 4a24 093d 07f0 9f3d e6ba 403d
00000110: 22f5 a93d 3201 4abb 6958 b23d fcd7 443b
00000120: 84fc b1bc 4c89 513c 2ab7 303c d7b3 1f3d
00000130: c923 d73c 917d a43d a55a ca3d c5d0 8e3c
00000140: 0bf8 07bc 2873 49bd f3c9 0abc 65d7 e8bc
00000150: aea2 b33c 25b6 b7bc cf32 8bbc 6996 09bd
00000160: 2d07 c8bc bfc8 6a3d da22 ca3c 32ed cb3c
00000170: c2b6 9e3c 835c b7bc c1f1 c13c ba4f b73d
00000180: e53a 84bc 5cd1 23bd 1863 acbc 91d1 da3c
00000190: 44c0 cc3c 41f9 1dbb e05f cd3c 10c2 113c
000001a0: 28c4 b83c 8e88 753d a9b1 883c 6996 de3c
000001b0: 1ed1 7a3c ee78 fe3b 47e2 373d ec20 a0bc
000001c0: 4174 bb3b 497d 1d3d 3198 0ebd 4f50 6b3c
000001d0: 8fc8 053e 9442 353d 4a30 6b3d 571f 293d
000001e0: c74b ddbc 9f4a 76bd 4d3b afbd 81b6 97bd
000001f0: d267 4ebd 28ad c9bd 3349 b5bd 2554 0abe
00000200: 1167 a8bd 4609 8ebc cc50 ff3b cd1c 433c
00000210: bd70 1c3c cf4d e4bc c288 583d f4f9 0e3c
00000220: 1e0d f33c b209 2cbd 1df7 b6bc c820 d63c
00000230: 1536 c7bc 651f 7cbc d7d4 92bd c34f 84bd
00000240: e6ca 6a3d f156 3f3c 104b 643d c7fd 923d
00000250: de40 4c3d ff2c 713d a5a1 f2bc 2532 b0bc
00000260: f599 9fbd a566 b3bd 3fa4 18bd 4a17 bebd
00000270: 6b86 86bd 0964 38bd 541c 72bd bf9c 0abc
00000280: bc63 e8bc a0b5 9fbd 54f7 74bc bc4f dc3a
00000290: 2057 313d e7c8 4dbd b2a9 6ebc c317 7c3c
000002a0: dcd7 9d3c 3817 10bd d9a8 a83c 2721 a53c
000002b0: 6356 663d 98ce 653d f1b2 973d 36f8 d53d
000002c0: 044e 773d 8064 923d af91 9a3c 6e4f 02bb
000002d0: 3c12 a9bc f600 debc 27ba 3ebc 3f8d b6bb
000002e0: 14a6 2cbc 23be 973b 43b6 a4bd 603f 93bd
000002f0: 66c8 99bd bc8a 04bd 2499 0fbc 199a d9bc
00000300: a8b2 d4bb bddd 5ebd ef6f 5fbd 2fa0 efbc
00000310: b274 093d 346f 893a 7ae5 9d3d 2bf5 d03d
00000320: 63c4 6d3c 8af1 523d f7f3 423c 1148 ffba
00000330: c56a f1bb f19e 1d3d f4b0 67bd d47f a33b
00000340: 0141 fbbc 0754 563d dd9e 48bc d414 e23c
00000350: f643 343d 4a46 19bb 1147 0dbd 48d0 7ebd
00000360: a0f7 bdbc 3462 b0bc 0f7e 30bc 2513 b9bc
00000370: f3ff 41bd 039d f7bc dc17 13bd d91f 1bbd
00000380: 3d3e f7bc 881e 27bd 8652 303d 2d77 703d
00000390: 8af0 973d b9f1 633d ff86 f8bb 63fe aabb
000003a0: 5239 34bc 88fd f9bb b972 1dbd 6783 97bb
000003b0: bcdd 11bd 2982 f8bb a8d6 443d c297 3a3d
000003c0: 0d3f 2abd 011f a1bd 2852 4ebd 8f71 70bd
000003d0: 4ba7 61bc 9b39 12bd ebf3 9abd 90d8 88bd
000003e0: 18f2 65bd 70cc 88bd e702 bcbd c054 a6bd
000003f0: ea9e 683d fbf5 ce3c bdfc 4d3d 92e1 893c

layer1.bias f4 [100]
0.03832456 0.08052635 0.19606839 -0.05618102 0.012748923 0.099194415 -0.029340992 0.089185365
0.11392055 0.0637487 0.107108 0.124922544 0.11100846 0.050361246 0.0652959 0.059261348
0.07801921 -0.005601501 0.116728194 0.10150315 0.09143927 -0.10706211 0.10192421 -0.01755664
-0.01916555 0.004905414 0.05652755 0.09013437 0.08576842 0.064688556 0.07885783 0.06585729
0.11095814 -0.10446983 0.10776363 -0.009939783 -0.08608986 0.14411251 0.07736981 0.00932578
0.0012485338 -0.10351704 0.013369421 0.079294175 0.17932743 -0.008296712 -0.012768418 -0.00031174737
-0.0573612 -0.0033673923 -0.07207823 -0.03694343 0.03056597 -0.041401546 -0.089086406 0.087960206
0.014215715 -0.08949179 0.14997037 0.071500346 0.112580486 0.004227654 0.036028262 0.08199777
0.11192785 0.06388282 -0.009892057 -0.074437246 -0.008298672 -0.100732975 -0.053261388 0.022009231
0.07709497 0.018896783 0.05810312 -0.06657867 0.10346009 0.010464927 0.09624501 0.01818641
0.15055427 0.070832476 0.11859311 0.01747993 -0.013791246 -0.025308648 0.03298778 0.026095675
-0.0113101965 0.01822314 0.04815583 0.027760351 0.014855426 0.047975577 0.02222983 0.020717772
0.0155747235 -0.04086165 0.10155232 0.17433952
00000000: 37fa 1c3d 00eb a43d 27c6 483e 121e 66bd
00000010: dce0 503c 7126 cb3d 855c f0bc d1a6 b63d
00000020: 2d4f e93d ae8e 823d 705b db3d 64d7 ff3d
00000030: 6758 e33d 9847 4e3d dbb9 853d 07bc 723d
00000040: 89c8 9f3d cc8c b7bb 310f ef3d e2e0 cf3d
00000050: 8344 bb3d 6143 dbbd a4bd d03d f1d2 8fbc
00000060: 1201 9dbc 98bd a03b 6f89 673d 5e98 b83d
00000070: 5aa7 af3d 6f7b 843d 3780 a13d 30e0 863d
00000080: 053e e33d 47f4 d5bd 2eb3 dc3d 79da 22bc
00000090: e14f b0bd 3b92 133e 1074 9e3d 28cb 183c
000000a0: d8a5 a33a be00 d4bd 6a0b 5b3c fc64 a23d
000000b0: 9ca1 373e efee 07bc a032 51bc 0672 a3b9
000000c0: 94f3 6abd 78af 5cbb c09d 93bd fe51 17bd
000000d0: 7c65 fa3c ab94 29bd ef72 b6bd 7b24 b43d
000000e0: 08e9 683c 7947 b7bd d591 193e c66e 923d
000000f0: 9990 e63d 2288 8a3b 5f92 133d 72ee a73d
00000100: 6e3a e53d ffd4 823d 4b12 22bc 8e72 98bd
00000110: 27f7 07bc 174d cebd 9d28 5abd b44c b43c
00000120: f8e3 9d3d 6dcd 9a3c 8afd 6d3d 665a 88bd
00000130: e2e2 d33d 1675 2b3c 1b1c c53d abfb 943c
00000140: e62a 1a3e 9e10 913d f2e0 f23d 1232 8f3c
00000150: aef4 61bc 1554 cfbc 321e 073d 99c6 d53c
00000160: 674e 39bc b248 953c 0c3f 453d ad69 e33c
00000170: 2c64 733c 0a82 443d 551b b63c 51b8 a93c
00000180: 202d 7f3c 8c5e 27bd aafa cf3d 0f86 323e

layer2.weight f4 [10, 100]
0.005387983 -0.04268487 -0.038749583 0.15772188 0.15458539 0.16904716 0.07120617 0.14420885
-0.21219978 0.0064452924 -0.0890226 -0.038100787 -0.25215566 -0.12860756 -0.088579424 0.05733007
0.18041328 0.16858906 -0.011409194 -0.26272288 -0.08549386 0.035470206 -0.1924692 -0.112930484
0.15878698 0.088219516 -0.2615872 -0.07719458 0.07030574 0.20723686 -0.19893649 0.052173436
-0.05993821 -0.016822841 0.25473392 0.18529062 0.08318747 0.06683093 -0.22966515 0.03415848
-0.13440633 0.050643235 -0.1651721 -0.0688023 0.1712813 -0.0928068 -0.088426076 -0.25219515
-0.06320281 -0.18755147 0.12959252 -0.06292583 0.16164349 0.05088157 -0.14453068 -0.19425194
-0.15520714 0.0087126065 -0.25464514 -0.19753939 0.04513283 -0.18650934 0.14061604 0.08786181
0.15307173 -0.038478497 0.08011278 0.10645875 -0.23576893 0.03611554 -0.1431963 0.069685
0.13016926 -0.16631225 0.14332491 0.01433059 -0.25443134 0.14900891 -0.12709966 -0.22901577
0.06867972 -0.1574301 -0.34739372 0.03461121 0.023424922 0.010384272 0.055462506 0.03632141
0.1279997 -0.39829573 -0.099400476 -0.059342876 -0.005335903 -0.12847406 0.024257954 -0.17299776
0.13173257 -0.019112287 -0.06853324 -0.31065148 -0.27278438 0.24072538 0.19099467 -0.24171102
0.11725644 -0.04973654 -0.12132046 -0.2187737 0.007859672 0.1734929 0.0068840603 0.18323246
0.07262396 -0.17177327 -0.16307247 0.03705925 0.04472083 -0.039082747 -0.090648465 0.29771438
0.1540559 0.07800331 -0.18978818 0.013598561 -0.0792886 -0.030476408 0.1752671 -0.22679463
0.11948543 0.075788096 0.055260736 -0.18052225 0.06536014 0.085723124 0.18672763 -0.08934011
-0.20450851 0.13230303 0.031231541 -0.10630492 -0.22903372 -0.038821843 0.060175236 -0.013705989
0.21969536 -0.22074236 0.019434197 0.10207001 0.047827117 0.09112095 -0.24983624 -0.06317923
-0.20052749 -0.07130532 0.030367004 0.13926697 0.118812375 -0.015729735 -0.0015636849 -0.0016993566
-0.12288945 0.059959035 0.057996847 0.23526071 -0.14787829 0.1600108 -0.18238209 -0.13836287
-0.17611623 -0.22923374 -0.19777992 -0.09215018 -0.21215007 0.044243816 -0.20633607 0.025169633
0.11351574 0.025050763 0.13445677 0.09730855 -0.18432021 0.1261154 -0.08681288 -0.056117468
0.14437784 -0.15952514 0.13676657 0.10586904 -0.15091836 0.0060361223 -0.12989464 -0.1843317
-0.21249549 0.0139919175 0.19437611 -0.09913578 -0.11778391 0.13479757 0.120895565 0.19458508
0.014901178 -0.122774266 0.17255571 0.028255017 0.06753321 -0.061410047 -0.18337877 -0.027626041
-0.027859537 0.035117127 -0.2272346 0.1478903 0.07020947 0.08967643 0.15642372 0.11555157
-0.2973886 -0.0028290672 0.1684337 -0.1680695 -0.3901921 0.13919905 -0.32054046 0.075697996
-0.15168415 0.0779743 0.11072113 0.083926424 -0.029358802 -0.09661164 -0.072999835 -0.21019405
-0.28801155 0.14528188 0.11156384 -0.07464596 0.030130198 -0.075655006 -0.1821322 -0.10008927
-0.072835386 0.046709083 0.03011564 -0.051893957 -0.03183204 -0.1280683 0.03981033 -0.010977063
0.034773946 -0.1684125 0.0430945 -0.061512996 0.13107017 0.16220729 0.18173549 0.09373703
00000000: ad8d b03b 55d6 2ebd e2b7 1ebd d881 213e
00000010: a24b 1e3e b31a 2d3e 8ad4 913d 7cab 133e
00000020: e64a 59be 0833 d33b 7b51 b6bd 920f 1cbd
00000030: 8c1a 81be b3b1 03be 2169 b5bd efd2 6a3d
00000040: 42be 383e 9ca2 2c3e a1ed 3abc 9d83 86be
00000050: 6817 afbd 3549 113d a516 45be 1948 e7bd
00000060: 0e99 223e 6fac b43d c2ee 85be 3118 9ebd
00000070: 75fc 8f3d e635 543e 02b6 4bbe d0b3 553d
00000080: c581 75bd 0ed0 89bc 7c6c 823e d3bc 3d3e
00000090: 315e aa3d a8de 883d 572d 6bbe c3e9 0b3d
000000a0: d0a1 09be 486f 4f3d e022 29be 38e8 8cbd
000000b0: 5d64 2f3e 7e11 bebd bb18 b5bd b91f 81be
000000c0: 7a70 81bd 7e0d 40be e7b3 043e 42df 80bd
000000d0: df85 253e 3169 503d daff 13be fbe9 46be
000000e0: 9fee 1ebe 52bf 0e3c d960 82be c447 4abe
000000f0: 34dd 383d 4efc 3ebe a7fd 0f3e e5f0 b33d
00000100: d6be 1c3e a19b 1dbd 2b12 a43d 0c07 da3d
00000110: 696d 71be e3ed 133d 0da2 12be 02b7 8e3d
00000120: 174b 053e c24d 2abe c4c3 123e daca 6a3c
00000130: d344 82be cb95 183e 6a26 02be 1c83 6abe
00000140: f4a7 8c3d 5b35 21be 97dd b1be 7cc4 0d3d
00000150: 9fe5 bf3c cb22 2a3c a72c 633d c2c5 143d
00000160: 5a12 033e 6bed cbbe 7a92 cbbd 8411 73bd
00000170: ccd8 aebb b48e 03be 9eb8 c63c 5326 31be
00000180: e7e4 063e 5f91 9cbc 285b 8cbd b60d 9fbe
00000190: 65aa 8bbe b780 763e 1b94 433e 1883 77be
000001a0: 2524 f03d 8bb8 4bbd dd76 f8bd 3606 60be
000001b0: dbc5 003c 1fa8 313e af93 e13b 4aa1 3b3e
000001c0: dfbb 943d 55e5 2fbe 78fc 26be 71cb 173d
000001d0: 302d 373d 3b15 20bd e7a5 b9bd 056e 983e
000001e0: d4c0 1d3e 33c0 9f3d d557 42be 80cc 5e3c
000001f0: 1062 a2bd a9a9 f9bc 3879 333e da3c 68be
00000200: c7b4 f43d ca36 9b3d 1559 623d d3da 38be
00000210: 89db 853d 9b8f af3d 8735 3f3e f3f7 b6bd
00000220: ae6a 51be 727a 073e 4ad9 ff3c 65b6 d9bd
00000230: d187 6abe a703 1fbd 4f7a 763d 168f 60bc
00000240: d2f7 603e 490a 62be 7734 9f3c 150a d13d
00000250: 5ee6 433d 9f9d ba3d 12d5 7fbe 1d64 81bd
00000260: 1457 4dbe 8608 92bd 39c4 f83c 009c 0e3e
00000270: e753 f33d a5db 80bc 8ff4 ccba f2bc deba
00000280: 77ad fbbd 9b97 753d 1a8e 6d3d 2fe8 703e
00000290: 686d 17be dfd9 233e 5fc2 3abe ffae 0dbe
000002a0: d057 34be 40bc 6abe d286 4abe 3cb9 bcbd
000002b0: de3d 59be 0139 353d c349 53be 8c30 ce3c
000002c0: f17a e83d 4237 cd3c 09af 093e b449 c73d
000002d0: 70be 3cbe 6524 013e f4ca b1bd 6edb 65bd
000002e0: c9d7 133e 8f5a 23be 890c 0c3e ded1 d83d
000002f0: 588a 1abe aaca c53b 1a03 05be 73c1 3cbe
00000300: 6b98 59be 5b3e 653c 880a 473e b307 cbbd
00000310: b138 f1bd 6008 0a3e 1898 f73d 5041 473e
00000320: 1224 743c 1371 fbbd 72b2 303e 1177 e73c
00000330: da4e 8a3d 1a89 7bbd a5c7 3bbe 0250 e2bc
00000340: af39 e4bc fad6 0f3d 30b0 68be 8e70 173e
00000350: fcc9 8f3d 47a8 b73d 8a2d 203e 4da6 ec3d
00000360: 5243 98be df67 39bb e279 2c3e 691a 2cbe
00000370: 42c7 c7be 328a 0e3e e11d a4be 8d07 9b3d
00000380: 1753 1bbe fdb0 9f3d c3c1 e23d 9ee1 ab3d
00000390: df81 f0bc 53dc c5bd f080 95bd 1c3d 57be
000003a0: 4076 93be c6c4 143e 957b e43d fbdf 98bd
000003b0: 9bd3 f63c 03f1 9abd dd80 3abe 9afb ccbd
000003c0: b82a 95bd 0652 3f3d 13b5 f63c c28e 54bd
000003d0: 5062 02bd 5624 03be 2810 233d 24d9 33bc
000003e0: 206f 0e3d 5474 2cbe dc83 303d 0df5 7bbd
000003f0: 4237 063e ab19 263e de18 3a3e 33f9 bf3d

layer2.bias f4 [10]
-0.12515065 -0.00331913 0.021206839 -0.090818346 -0.06092161 0.13255832 -0.093876794 -0.02142239
-0.15526687 -0.09776167
00000000: 7e27 00be c385 59bb f7b9 ad3c f8fe b9bd
00000010: f088 79bd 5ebd 073e 7a42 c0bd 027e afbc
00000020: 47fe 1ebe 4537 c8bd
